weigh/1.pt (torch, 78784 bytes, 13 tensors)

fc1.weight f4 [128, 74]
000000 e2 ef 1b 3f e9 cd 23 3e ee 7f df 3e 6b 51 64 3f
       0.6091291 0.15996517 0.4365229 0.89186734
000010 1b a0 97 be 31 63 e2 bd af b4 54 be ba 0d cd bd
       -0.29614338 -0.110540755 -0.2077205 -0.10012384
000020 32 c2 b3 be 11 fb ed be d9 5e 1a 3e 92 88 1e 3f
       -0.35109097 -0.4648061 0.15075244 0.6192714
000030 5f 39 35 3d 39 be 07 3d d8 fc 85 bd 8a 68 b1 bf
       0.044244166 0.033140395 -0.06542367 -1.3860028
000040 e4 91 06 3e 62 d5 9f bf 55 4e ab 3c a2 52 30 3d
       0.1314159 -1.2486994 0.020911375 0.043047555
000050 c1 55 b9 3d 3d 3b bf 3d 5c c5 51 bd 14 2c b1 3e
       0.090495594 0.09337471 -0.051213607 0.3460394
000060 e8 83 09 bf 77 cd 0c 3f 19 46 d3 3e 1d 9b 1b 3f
       -0.537169 0.55001014 0.41264418 0.6078356
000070 cf 9f a4 3f 43 e2 98 bd 88 db 00 3f b9 4a 16 3f
       1.286127 -0.07465031 0.5033498 0.5870777
000080 08 dd d6 3d 5e d5 b2 3e 1a 3e 6c 3e 21 da d7 bd
       0.10491377 0.3492841 0.23070565 -0.10539652
000090 a2 28 c0 be 24 e8 b2 3f 69 df 83 3f 66 61 73 bf
       -0.37531 1.3977094 1.0302554 -0.95070493
0000a0 8d 8f bc be 9e 5b 9e be b1 b1 cc be 50 36 0e 3f
       -0.3682827 -0.30929273 -0.39979318 0.55551624
0000b0 b7 e4 3c be 13 63 22 3f ca 4b b3 3d fd 0b ae be
       -0.18446623 0.63432425 0.0875469 -0.3399352
0000c0 dc 9a 83 bc 6d f3 76 bf 00 f6 22 3c da 98 2d bf
       -0.016065054 -0.9646519 0.009946346 -0.6781136
0000d0 c6 57 d5 3e 97 39 b6 bd a3 26 80 3e b7 3a 68 3d
       0.41668528 -0.08897703 0.25029477 0.05669662
0000e0 8e 2d d1 bd 7c e3 46 be 91 3f b9 bd 3c 79 03 bd
       -0.10213767 -0.19422716 -0.090453275 -0.03209804
0000f0 39 3a ee 3a 1d 06 e4 3d d4 c5 e2 bc 5f 87 b0 bd
       0.0018175311 0.111339785 -0.027682222 -0.0861957
000100 cb 32 be bd 49 50 b0 3d 3a ea 54 3d 7f 48 d9 3d
       -0.09287032 0.08609063 0.05198119 0.10609531
000110 8b 47 13 3c bb 52 94 be 3c ed cf 3d 43 db 6a 3e
       0.008989225 -0.28969368 0.10152671 0.22935204
000120 4a 9e df 3d fe 5f 4e be fb b4 a9 3e 40 ec c0 3d
       0.10918863 -0.20153806 0.3314589 0.09420061
000130 3a c5 d9 3e 4e 23 42 3f 12 6d 14 bf 76 5e cd bd
       0.42533284 0.7583512 -0.5797893 -0.100277826
000140 89 ec c1 be 67 74 46 3e 1f 97 a7 bd 54 53 82 3e
       -0.37875775 0.19380341 -0.08183121 0.254542
000150 b7 51 4f 3e b9 21 2d 3f 9d 7b 67 be 08 a8 2c 3d
       0.20246015 0.6762958 -0.22605748 0.042152435
000160 69 87 c5 3d 4c 89 d2 bf 0a 0a fd bb ae 27 d4 be
       0.09644968 -1.644815 -0.007722144 -0.41436523
000170 81 5a 97 bf 51 2b 82 bd 68 c3 8d 3e d2 a8 0e 3d
       -1.1824495 -0.06355918 0.27688146 0.03482897
000180 25 ce d4 3e 41 fe 9b 3c 87 1c 3a bf 41 67 5b be
       0.41563526 0.019042136 -0.7269978 -0.21426107
000190 9e 64 41 bf 9e 02 1f bf 75 72 09 3f 15 14 b5 3f
       -0.75544155 -0.6211337 0.5369027 1.4146754
0001a0 e5 ad 4b bc b4 27 5f bc 67 c0 f4 3d e7 43 cc 3d
       -0.012431596 -0.013620306 0.1195076 0.09973889
0001b0 59 5b bd be 68 e3 51 be 56 35 99 bf a6 e9 57 3f
       -0.36983755 -0.20496905 -1.1969402 0.84340894
0001c0 70 89 73 3f 3d 3a 1e bf e5 12 99 3d d2 3e bc 3d
       0.9513159 -0.61807615 0.07474307 0.091916695
0001d0 c5 c4 1f be 83 5c 70 bf ac 21 50 bf a8 dc 80 bf
       -0.15602405 -0.9389116 -0.8130138 -1.0067339
0001e0 c3 83 0e bf f1 35 82 bf 08 aa 3f 3d 5f 75 9f be
       -0.556698 -1.0172712 0.046793014 -0.31144235
0001f0 38 36 53 3d bb 1c 8b be 5a 5e b3 3d f0 cb 15 3d
       0.05156538 -0.27170357 0.087582305 0.036571443
000200 9a 2e 1b 3e bc dc 9d bd 94 e6 18 3d 51 1d 10 bd
       0.15154496 -0.07708117 0.03732927 -0.03518421
000210 fc b1 88 bd 4c b3 ab bd 8a 41 db 3d 79 f4 51 3d
       -0.06674573 -0.083838075 0.1070586 0.051258538
000220 56 65 e3 3d 44 1c 0e bd 06 f0 9e 3d 8f ad 1d bd
       0.11103313 -0.034694925 0.077606246 -0.038495596
000230 55 93 b7 bc a1 b2 cf 3c 02 c7 25 bd a6 1f 6a 3d
       -0.02240912 0.025353732 -0.04047299 0.05715909
000240 85 94 86 3e c6 31 42 3f bf fd 79 bd e8 31 a0 bf
       0.26285186 0.758572 -0.061033007 -1.251523
000250 fb 29 01 bd 0a 19 bc 3d 4e 88 3f 3e 88 e7 9a be
       -0.031534176 0.09184463 0.1870434 -0.3025477
000260 15 3d f5 3d 4e 77 c7 be 3b 51 47 be 55 bc 86 bd
       0.11974541 -0.3895821 -0.1946458 -0.0657889
000270 67 42 0d be 73 74 23 bd e9 dd bb bd 05 9a 80 be
       -0.13794862 -0.039905977 -0.091731854 -0.25117508
000280 c0 8d 80 3e a6 21 7e 3e e7 48 99 3d 3e 87 04 3e
       0.25108147 0.24817523 0.07484608 0.12942216
000290 64 11 49 3e 03 1e e9 be cf 54 d7 3e a6 1e 8c bd
       0.1963554 -0.4553071 0.4205689 -0.06841783
0002a0 83 c4 4a 3d 7f 50 bc 3d e0 36 a1 be 64 90 d9 3d
       0.049503814 0.09195041 -0.3148718 0.106232435
0002b0 61 02 1b be aa 6b 93 3e 3b cc 25 3f 2c bd 67 3f
       -0.15137626 0.2879308 0.64764756 0.9052303
0002c0 18 16 05 3f 20 45 25 bf cb 41 83 3e 7f 1e c6 3d
       0.5198684 -0.645586 0.25636134 0.096737854
0002d0 dc 6c 3c be 7a 0c 69 bd 91 96 78 3e c6 95 f0 3d
       -0.18400902 -0.056896664 0.24276187 0.11747317
0002e0 4d 32 34 3f 1a b0 a8 3d dd 79 09 bf 85 de 76 be
       0.7038925 0.08236714 -0.53701574 -0.24108322
0002f0 9b 6e d4 bd 3c d3 bd 3d 2a 1a bd 3d 8a 23 c6 3f
       -0.10372659 0.092688054 0.09233506 1.5479596
000300 16 ce 18 3f 76 be d2 3f 64 98 a0 3e 7f e2 4b bd
       0.5968946 1.6464374 0.31366265 -0.04977655
000310 a0 5a a9 bd a1 18 a2 be c4 34 57 bd b7 15 4e bc
       -0.082692385 -0.31659415 -0.052540556 -0.012578419
000320 53 61 a7 3e 8a 12 a0 3d e7 c1 86 3d b5 56 a5 3d
       0.3269144 0.07816036 0.06579953 0.08073179
000330 f0 60 35 3c 29 e1 4f 3c 04 8f c0 3d e2 e6 4c 3c
       0.011070475 0.01268796 0.09402278 0.012506219
000340 49 b2 be bc 21 ac ba bd b6 99 e5 bd 22 e8 5c bd
       -0.023278372 -0.09114862 -0.11210959 -0.053932317
000350 86 4b 17 be 9b 31 d1 3d 16 c7 02 bd 43 b0 18 3d
       -0.14774904 0.102145396 -0.031928144 0.03727747
000360 54 f0 db bd 40 00 0a bd 12 e0 64 bc e6 07 a3 be
       -0.10739198 -0.033691645 -0.013969438 -0.31841964
000370 33 8c ad 3e 1c f9 77 3e 8b 1e f5 bd 90 d9 4f bf
       0.33896026 0.24216121 -0.11968716 -0.8119135
000380 71 1d 3b 3e 60 d3 b4 be 44 84 69 3f 41 7d aa 3e
       0.1827295 -0.35317516 0.91217446 0.33298686
000390 aa 78 56 bd 18 54 be 3e e3 d5 9d be 40 c6 3d bf
       -0.052361168 0.37173533 -0.30827245 -0.7413063
0003a0 78 e3 66 bf 76 9d 2f bf 6f af 27 bf cb 5a 86 bd
       -0.9019084 -0.6859964 -0.65502065 -0.06560286
0003b0 7a 11 b4 bd 7a 22 ba 3f 2e c2 23 be ad 27 26 3d
       -0.08792396 1.4541771 -0.15992042 0.04056518
0003c0 f9 c9 37 3f 5a 02 5f 3d 2b c8 03 3d 4a cb 0b be
       0.7179256 0.054445602 0.032173317 -0.13651767
0003d0 d8 59 ef be f7 a0 d0 be ec 55 a0 3f 11 3b 88 3f
       -0.46748233 -0.40747806 1.2526221 1.0643026
0003e0 c5 8e 67 3f 94 75 78 3f 9e 03 57 bd e8 3d 9f bf
       0.90452224 0.9705441 -0.052493684 -1.2440767
0003f0 6a ac 58 3e 37 5f 2b 3d dc 77 0a be 4f ca 80 3e
       0.21159521 0.04183885 -0.13522285 0.2515435

fc1.bias f4 [128]
000000 7b e7 30 bd f4 24 a8 bd 99 03 84 3d 72 c9 a9 bb
       -0.043189507 -0.08210173 0.06445999 -0.005181485
000010 96 bc c5 bd 63 8d 03 3d 25 03 b0 3d 93 46 8a bd
       -0.096551105 0.03211726 0.0859435 -0.06751742
000020 60 f8 20 3d f4 b8 e4 3d d2 49 ae 3d 76 8d ab bd
       0.03929937 0.111680895 0.08510174 -0.08376591
000030 92 d7 20 bd 49 e6 30 bd 9c ff b6 bc 60 57 b7 bd
       -0.039268084 -0.043188367 -0.02233868 -0.08952212
000040 b5 4b da bd 2a e3 d4 bd bf 82 cf 3d c6 2d 87 bd
       -0.10658971 -0.103948906 0.1013236 -0.066005275
000050 c6 be 85 bd e7 e4 ed 3c c6 04 92 3d 28 fa a1 3d
       -0.06530528 0.029039813 0.07129817 0.07909042
000060 f7 7c 22 bd 0a a7 15 3d 40 85 83 3c 7d 39 43 bd
       -0.039669957 0.036536254 0.01605475 -0.047662247
000070 13 24 dc bd 81 e2 43 3d 73 ab a2 bd 84 46 e9 bd
       -0.10749068 0.047823433 -0.079428576 -0.11390403
000080 68 a6 b9 3b 56 34 0f bd 96 9a ae 3d 7e ac f4 3c
       0.005665589 -0.03496202 0.08525579 0.029867407
000090 f4 6a f5 ba 5d 6f 9d 3c b6 43 52 3d e9 d9 be bd
       -0.0018723891 0.019218141 0.051334105 -0.09318907
0000a0 9f 4c e7 3d e6 bc e4 3c b9 da ea 3c b6 9b 86 ba
       0.11293911 0.027922105 0.028668748 -0.0010269794
0000b0 27 a2 61 3d 30 41 63 3d a0 64 b5 3d 88 f6 17 3b
       0.05508628 0.05548209 0.08857083 0.0023187716
0000c0 ae f4 2f bb d7 fa cb bd 5b 58 ea bd 93 cf 38 3d
       -0.0026848721 -0.09959953 -0.11442634 0.045119833
0000d0 a2 44 ba 3b 35 8d c5 bd dd 96 bb bd b6 12 6d 3d
       0.005684451 -0.09646074 -0.09159634 0.057879172
0000e0 8e c5 90 3d 8c ba a8 bd db 9a 7e bd 9f 6f d4 3d
       0.070689306 -0.08238706 -0.0621594 0.103728525
0000f0 b8 e8 99 bd b5 28 87 3c e8 ea 2f bd b2 a3 5b bd
       -0.07515091 0.016498903 -0.042948633 -0.05362291
000100 66 d1 1b 3d 59 3d a9 3d 73 f0 1d 3c f5 27 bf 3c
       0.038041495 0.08263654 0.009639847 0.023334483
000110 4f ad b3 3d a7 89 cc 3d 63 aa 93 bd 0e eb e5 bd
       0.0877329 0.099871926 -0.07210233 -0.11226474
000120 48 e8 d2 3a 6d c7 92 bc 26 43 dc 3d cb f6 e7 bd
       0.0016090954 -0.01791736 0.10754995 -0.11326369
000130 81 5c 68 3c a3 8d 3e bd 39 0b 17 3c fe cc 0d bd
       0.014182211 -0.046521794 0.009218984 -0.034619324
000140 dc 42 b4 bd 4c 09 d9 bd 33 a3 d6 bd d9 eb f7 bb
       -0.08801815 -0.10597476 -0.104803465 -0.007565957
000150 dc ea e5 bd 97 f2 50 3b cb 14 e5 bc 6d 1c e5 bd
       -0.112264365 0.0031882876 -0.027964016 -0.111870624
000160 58 54 b0 bc 02 42 d9 bd 82 c6 d1 bd 86 0a 79 bd
       -0.021524593 -0.10608293 -0.102429405 -0.06080105
000170 55 6a 8f bd 7f b8 82 bd ef 9a 35 3d 95 8b 29 3c
       -0.07002703 -0.06382846 0.04433721 0.01034822
000180 cb d5 4e 3d a5 26 aa bd 18 eb 58 bd f4 ef 7f bd
       0.050496858 -0.08308152 -0.052958578 -0.062484697
000190 ba 49 53 3d 32 12 1e bd 52 1d ed 3d c9 68 ac 3b
       0.051583983 -0.03859157 0.11577858 0.005261515
0001a0 39 c1 c4 3d 6b 09 66 bd 94 98 32 3d eb 84 19 3c
       0.09607167 -0.056161325 0.04360254 0.009370069
0001b0 88 88 5d 3d 56 11 2f bd 25 6f 44 bd 12 9d a2 bd
       0.054085284 -0.042741142 -0.04795756 -0.07940115
0001c0 21 0a b9 3d 99 d7 c4 bd d9 b6 ce bd 94 bc 59 3d
       0.09035135 -0.096114345 -0.10093469 0.053158358
0001d0 8b e6 96 bc 5f c4 39 3c db 66 70 3d 14 07 90 3d
       -0.018420478 0.011338322 0.05869184 0.070326
0001e0 99 65 d7 3d 42 88 74 bd ad 06 a2 3b 6c 97 b7 bd
       0.10517425 -0.059700258 0.0049446435 -0.08964428
0001f0 23 54 2c bc 02 f9 0c bd 88 0a e2 bd e3 04 db bc
       -0.010518107 -0.03441716 -0.11037165 -0.026735729

fc1_bn.weight f4 [128]
000000 1b 2e 82 3f 5c aa 67 3f 64 99 28 3f aa 37 fb 3e
       1.017032 0.9049432 0.65859056 0.49065906
000010 2c 2d e5 3f 9c c4 47 3f ea 49 21 3f 1e d1 0e 3f
       1.790441 0.7803438 0.6300341 0.5578784
000020 57 e4 87 3f 9e ad 8d 3f 54 04 85 3f 40 70 c3 3f
       1.0616559 1.1068609 1.0391946 1.5268631
000030 58 83 91 3f 9d 7e 46 3f 93 e4 61 3f 9e b9 3d 3f
       1.1368208 0.77536947 0.882394 0.74111354
000040 da 51 b0 3f 37 0e 23 3f ca fc 6d 3f 69 c2 49 3f
       1.3774979 0.63693565 0.9296385 0.7881227
000050 cf 14 a8 3f 98 84 71 3f f6 19 cb 3f e2 c1 c3 3f
       1.313135 0.94342947 1.5867298 1.5293543
000060 c9 30 bd 3f 6e 65 40 3f 42 27 5d 3f 7a 11 cc 3f
       1.4780513 0.7515477 0.8638803 1.5942833
000070 cc f7 2f 3f 6a 18 52 3f 6e 55 59 3f ef 73 58 3f
       0.68737483 0.820685 0.8489598 0.845519
000080 59 79 a2 3f de a2 54 3f 94 f6 cc 3f 57 de 90 3f
       1.2693282 0.83061016 1.601275 1.1317853
000090 4b ec 82 3f 1c 00 9f 3f d2 44 7b 3f 9c 5b ca 3f
       1.0228361 1.2421908 0.98151886 1.5809207
0000a0 9c 35 08 3f f9 91 3f 3f 5c 82 0a 40 53 45 b2 3f
       0.532068 0.7483211 2.1642065 1.3927406
0000b0 55 b0 9a 3f 82 4e 8e 3f 99 76 a5 3f 51 32 95 3f
       1.2085062 1.1117709 1.2926818 1.165598
0000c0 b7 4b 7a 3f 88 38 1d 3f e8 86 86 3f ab be 70 3f
       0.9777178 0.61414385 1.050992 0.94040936
0000d0 12 3c e7 3f 79 af e2 3f 52 24 9b 3f 37 cf cc 3f
       1.8065207 1.77098 1.2120459 1.6000737
0000e0 b5 d8 68 3f bb a9 96 3f 52 90 4b 3f 98 e2 be 3f
       0.9095567 1.1770548 0.7951709 1.4912901
0000f0 9d 82 55 3f 4e 2f 05 3f 26 2b c2 3f 86 28 aa 3f
       0.83402425 0.52025306 1.5169418 1.3293617
000100 91 a7 86 3f 6f 47 b4 3f 61 2f 6c 3f 14 ad 9f 3f
       1.0519887 1.40843 0.92259794 1.2474694
000110 bb 5a 32 3f 40 77 a8 3f ee 3c 25 3f 37 82 ec 3e
       0.69669694 1.3161392 0.64546096 0.46193096
000120 bb 85 a1 3f f7 4f bd 3f 00 e6 8e 3f 9b c4 8b 3f
       1.2618936 1.4790028 1.116394 1.0919374
000130 0e 03 84 3f ba 46 8d 3f 2b f2 9d 3f c5 19 8a 3f
       1.0313432 1.1037209 1.2339529 1.0789114
000140 de c3 a8 3f 1a 04 4d 3f 2c e0 b7 3f b0 1b b0 3f
       1.3184774 0.80084383 1.4365287 1.375845
000150 0d 9a 6b 3f 9c 4d 8a 3f fd e5 5a 3f 47 9f 25 3f
       0.9203194 1.0804935 0.85507184 0.6469616
000160 9c 58 ac 3f 40 a0 5e 3f f9 ac 4b 3f 4a ec a0 3f
       1.3464541 0.8696327 0.7956081 1.257211
000170 21 07 2c 3f e5 00 87 3f 8f 79 05 40 b6 bd 33 3f
       0.6719838 1.0547148 2.0855443 0.7021135
000180 84 f5 e6 3f 81 dc 76 3f de d0 41 3f 18 77 67 3f
       1.8043675 0.9643021 0.7570933 0.904161
000190 3b 31 da 3f 25 a4 a5 3f d1 e2 80 3f 6d ca b0 3f
       1.7046274 1.2940718 1.0069219 1.3811775
0001a0 d7 cd 9a 3f 10 69 6d 3f c4 fc 4b 3f e8 67 cf 3f
       1.2094067 0.9273844 0.79682565 1.6203585
0001b0 3e fe fc 3e 35 9c 80 3f 2b cb 75 3f dc 00 8d 3f
       0.4941272 1.0047671 0.96013135 1.1015887
0001c0 ce 5b 5e 3f fc 4b 88 3f a6 0c 90 3f 65 bd e1 3f
       0.8685883 1.0648189 1.125386 1.7635924
0001d0 4c ab 95 3f f1 f9 9f 3f e3 76 56 3f 3f d3 a7 3f
       1.1692901 1.2498151 0.83775157 1.3111342
0001e0 3d 12 72 3f 31 da c3 3f 83 2e a0 3f c7 38 d9 3f
       0.9455908 1.5300962 1.2514194 1.6970452
0001f0 ad e0 82 3f 83 c7 94 3f bb fc 8a 3f 32 11 8a 3f
       1.0224816 1.1623386 1.0858377 1.0786498

fc1_bn.bias f4 [128]
000000 5f 0c 00 3e 8f 94 32 3f 3f 98 79 be 2a 18 7a be
       0.12504719 0.6975793 -0.24374484 -0.2442328
000010 96 57 1e 3f 64 71 7c bf 96 94 ed bd 21 1e 8d bd
       0.61852396 -0.9861052 -0.11600606 -0.06890512
000020 13 e7 c2 bd 03 80 40 bf c9 5b 8a be 8c 36 dc 3c
       -0.0951673 -0.7519533 -0.27023152 0.026881479
000030 e7 a1 07 3f cb 56 62 bd bd 7d 63 bd 6d 75 3c 3f
       0.5298142 -0.055258553 -0.055539835 0.7361668
000040 ce 02 17 be bf 50 1c 3e 2d c8 59 bf 04 f4 5f bd
       -0.14747164 0.15265177 -0.8507107 -0.05467607
000050 c6 c9 7d 3d 84 cc 9a bf 49 71 fb be 3b 17 8d 3f
       0.061960004 -1.2093663 -0.49109867 1.1022714
000060 9f d4 1d bf 5b 36 1c be 65 a7 ea 3e 3d c6 d2 3e
       -0.6165256 -0.1525511 0.45830837 0.4116687
000070 6b cd 14 3f 4f 5c 8a 3e 83 ee 5c 3b be d0 84 bf
       0.5812594 0.2702355 0.00337115 -1.0376203
000080 4d 76 f7 3e 9f 31 c2 be 3f d1 77 3f 81 86 85 be
       0.48332444 -0.37928483 0.9680366 -0.2607918
000090 40 31 0e be 3e a2 89 3f fe 2f cd bd 0a 97 8e 3a
       -0.13885975 1.0752637 -0.100189194 0.0010878753
0000a0 7d a9 0d bf fd c8 15 bd aa d0 b0 bd 09 a8 f2 3d
       -0.55336744 -0.03656863 -0.086335495 0.118484564
0000b0 67 1d 2a be c5 e5 30 bd 5a dd 2e be 37 4a 20 be
       -0.16612779 -0.043187875 -0.17076626 -0.1565331
0000c0 22 6b b1 bc 2c 2c 4d 3e 69 32 a5 be c8 94 c8 be
       -0.02165753 0.20036381 -0.32265022 -0.3917601
0000d0 bc ed 16 3f c9 c7 22 be e2 21 c5 bd 99 fe 13 bf
       0.58956504 -0.15896524 -0.09625603 -0.5781036
0000e0 e6 12 6d 3e 1f 05 93 be 09 40 a4 be 55 f2 7f 3e
       0.2315174 -0.28714845 -0.32080105 0.24994786
0000f0 7b 0e 21 be 22 ba bc 3e e1 b1 b4 be 55 75 db bd
       -0.1572818 0.36860758 -0.3529196 -0.10715739
000100 c3 6f 2d bd a8 69 99 be d6 d5 4e bd 94 0c 8b 3e
       -0.042342912 -0.29963422 -0.0504969 0.27158034
000110 58 13 88 be d3 7d 06 be 06 df ce be f7 31 b9 be
       -0.26577258 -0.13133936 -0.40404528 -0.36170933
000120 8d ec 78 bf 62 97 f1 3e cd 2e c7 bb 33 b0 80 3f
       -0.9723595 0.47185808 -0.006078577 1.0053772
000130 d2 66 c6 3c 97 a8 0e be 20 db de be f4 55 af be
       0.02421895 -0.139315 -0.43526554 -0.34245265
000140 9e b0 0e bf 34 24 29 be 5c a8 86 bd ab 3b 95 be
       -0.55738246 -0.16517717 -0.06575081 -0.29147086
000150 cc 44 a2 be 3f b0 64 be 1f 96 88 be 6d 15 dd be
       -0.31693113 -0.22332858 -0.26677033 -0.4318041
000160 6c c0 8a 3f e9 dc 45 bf a0 7d 98 bc 7c db 00 be
       1.0839972 -0.7729021 -0.01861459 -0.12583727
000170 fa 39 35 bf 89 b4 66 3f 13 a0 5c bd 5d 7a 88 be
       -0.7079159 0.90119225 -0.053863596 -0.26655856
000180 9f 7f 92 3c fb 65 11 bd 9a 5e 52 bf 62 92 40 bf
       0.01788312 -0.035497647 -0.821756 -0.7522336
000190 02 bc c9 be 50 a9 74 be b8 98 de be 48 f1 4f 3f
       -0.3940125 -0.23892713 -0.4347589 0.8122754
0001a0 9f ed c0 be dd 07 61 be f4 81 21 bf a5 7e ee bd
       -0.3768129 -0.21975656 -0.6308892 -0.11645249
0001b0 8d 90 73 bf 28 fa a8 be c9 f1 4b 3f 75 1b 48 3c
       -0.9514244 -0.33003354 0.7966581 0.0122135775
0001c0 50 56 7b be 98 02 9e 3e a3 bb 72 be 6a a2 92 be
       -0.24544644 0.30861354 -0.2370439 -0.28639537
0001d0 14 a2 5f bc 3a 8a 5b be 69 9f 9f be b9 70 2b be
       -0.013649482 -0.21439448 -0.31176308 -0.16742219
0001e0 72 09 09 bf a7 07 34 be 64 23 56 bd 82 12 73 be
       -0.5353004 -0.17581044 -0.052279845 -0.23737529
0001f0 04 1b 5b be 71 6b 74 bd c8 81 8a 3e 85 0d 9e 3c
       -0.21397024 -0.059672777 0.2705214 0.019293556

fc1_bn.running_mean f4 [128]
000000 ec a6 9a c8 e2 05 78 c8 96 f4 7f c8 7d 90 28 c8
       -316727.38 -253975.53 -262098.34 -172609.95
000010 e7 17 f5 c7 85 96 72 48 ab f5 a2 c8 ba 09 24 48
       -125487.805 248410.08 -333741.34 167974.9
000020 d0 eb b2 48 6b 38 75 48 8d 28 c9 48 6d 2d aa 48
       366430.5 251105.67 411972.4 348523.4
000030 69 43 a7 c5 ae 42 0f 48 45 0a 91 48 64 fe a9 c7
       -5352.4263 146698.72 297042.16 -87036.78
000040 73 94 b2 c8 89 a0 8a c8 1b 94 c5 48 ef ac 18 48
       -365731.6 -283908.28 404640.84 156339.73
000050 9d bf d2 48 b8 59 47 c8 e0 9e 48 c7 d8 ef 6c c7
       431612.9 -204134.88 -51358.875 -60655.844
000060 00 0f 75 c8 49 41 78 48 e8 82 11 c8 f3 c9 13 c7
       -250940.0 254213.14 -149003.62 -37833.95
000070 d3 f8 2d c8 1f 36 8e c8 af 41 5d 48 13 95 10 48
       -178147.3 -291248.97 226566.73 148052.3
000080 34 28 b5 c7 68 36 bd 48 4c 38 72 46 16 b2 6f 48
       -92752.41 387507.25 15502.074 245448.34
000090 98 7f 61 48 e6 62 cc c8 a6 6b 2e c8 77 a6 e4 48
       230910.38 -418583.2 -178606.6 468275.72
0000a0 bc 0f 23 48 f4 f7 a3 48 16 66 2a c8 66 94 bc 48
       166974.94 335807.62 -174488.34 386211.2
0000b0 96 3c 7e 48 2d cf 13 48 c9 df 11 c9 2e 12 ac 48
       260338.34 151356.7 -597500.56 352401.44
0000c0 bb 01 b0 48 2f 47 1f 48 9c d1 84 c8 23 16 3f 48
       360461.84 163100.73 -272012.88 195672.55
0000d0 d8 5d 04 c6 44 f4 c2 48 57 95 16 48 09 30 d6 c8
       -8471.461 399266.12 154197.36 -438656.28
0000e0 6e ea 6b 48 46 d4 b9 47 22 d8 68 48 1f fe 67 c8
       241577.72 95144.55 238432.53 -237560.48
0000f0 76 10 90 48 9a 8f 0a 48 3c 78 e3 c8 68 e7 c2 c7
       295043.7 141886.4 -465857.88 -99790.81
000100 f3 d5 91 c8 01 3b 92 48 0e 7c 8b 47 21 c6 90 c8
       -298671.6 299480.03 71416.11 -296497.03
000110 31 e4 cd c7 f4 36 10 c9 9a f7 69 c8 83 1c 93 c8
       -105416.38 -590703.25 -239582.4 -301284.1
000120 2e df 75 c8 52 7a 5f c8 a4 e1 32 c8 f6 15 86 c8
       -251772.72 -228841.28 -183174.56 -274607.7
000130 4f 88 82 c8 51 34 98 48 52 d5 90 48 ce 1d d6 48
       -267330.47 311714.53 296618.56 438510.44
000140 f2 a7 b0 c8 62 cc 35 c8 4b 2d 82 48 94 5d ce 48
       -361791.56 -186161.53 266602.34 422636.62
000150 b1 30 a9 48 a8 4e 9c 48 b0 28 3a 48 c3 1f a7 c7
       346501.53 320117.25 190626.75 -85567.52
000160 83 6b 70 c8 a6 3f ba c7 d3 cd 6e 48 05 29 9d 48
       -246190.05 -95359.3 244535.3 321864.16
000170 43 ac a1 c8 39 b3 aa c8 50 a0 96 48 f6 6b 4f 48
       -331106.1 -349593.78 308482.5 212399.84
000180 08 38 fe 48 cc 0a 68 48 31 ac a2 48 d9 38 3b c8
       520640.25 237611.19 333153.53 -191715.39
000190 62 17 c8 48 c5 da f4 c7 06 6b 0c c8 fb 03 96 45
       409787.06 -125365.54 -143788.1 4800.4976
0001a0 0c b1 9d c8 e8 e2 72 48 7e 11 40 48 cc 37 35 48
       -322952.38 248715.62 196677.97 185567.19
0001b0 25 5a ab 47 84 1d a4 48 4a 4b 80 46 b7 e7 4b 48
       87732.29 336108.12 16421.645 208798.86
0001c0 1e d8 1d c8 97 f7 95 48 83 24 84 48 b5 08 bb 48
       -161632.47 307132.72 270628.1 383045.66
0001d0 dd 84 8c 48 be d5 ce c8 f8 1c a8 48 f4 7d 03 c9
       287782.9 -423597.94 344295.75 -538591.25
0001e0 95 09 c3 c7 db 22 09 c9 12 9d 03 c9 cf 19 82 48
       -99859.164 -561709.7 -539089.1 266446.47
0001f0 5e 26 da 48 7e 21 b9 48 9e eb 67 c8 c1 37 c5 48
       446770.94 379147.94 -237486.47 403902.03

fc1_bn.running_var f4 [128]
000000 f4 b2 39 51 73 3f f3 50 6c 45 b4 50 25 8d 61 50
       4.9848205e+10 3.2648174e+10 2.4195588e+10 1.5136495e+10
000010 68 3c 16 4f b9 62 b7 50 4c 68 46 51 92 22 8d 50
       2.5205412e+09 2.4613603e+10 5.3259583e+10 1.8942824e+10
000020 fe 4b 24 51 aa 98 e2 50 0c 6e 44 51 34 2d 17 51
       4.41031e+10 3.0413246e+10 5.272874e+10 4.0581153e+10
000030 74 ab 97 4f 5e 71 43 50 8b b8 1d 51 38 2b 9d 4f
       5.089192e+09 1.3115947e+10 4.2337874e+10 5.2737106e+09
000040 79 a7 ea 50 96 7c 39 51 04 a8 71 51 9e bb 3d 50
       3.1494752e+10 4.9791197e+10 6.486912e+10 1.2732758e+10
000050 4b 84 7f 51 d4 89 96 50 0f 3e b5 4f db 22 bf 4f
       6.858976e+10 2.020492e+10 6.0814863e+09 6.413465e+09
000060 96 c0 b8 50 26 e6 8b 50 ec 48 68 50 c0 67 0b 4f
       2.4797032e+10 1.8776928e+10 1.5588372e+10 2.3388324e+09
000070 63 5a 26 50 33 1e c7 50 a3 3b 00 51 35 ff 12 50
       1.1163766e+10 2.672516e+10 3.442227e+10 9.864795e+09
000080 aa f3 51 4f 46 66 3f 51 9f 21 a6 4f 7e 9d 01 51
       3.522407e+09 5.1378414e+10 5.5744425e+09 3.4793316e+10
000090 6b ff 82 50 7f 8f 81 51 36 b6 bb 4f a9 d3 59 51
       1.7582217e+10 6.955728e+10 6.2985615e+09 5.8472436e+10
0000a0 7f d2 92 4f 69 89 1c 51 ed 90 36 4f c1 bb f2 50
       4.926537e+09 4.2020016e+10 3.0629512e+09 3.2579127e+10
0000b0 c3 47 85 50 7b 24 7c 50 37 ec 1b 52 35 87 e5 50
       1.7888582e+10 1.6920997e+10 1.6742074e+11 3.0806747e+10
0000c0 d4 b3 46 51 1b 7f a4 50 56 c1 d0 50 ed b8 93 50
       5.3338784e+10 2.2078347e+10 2.8018651e+10 1.982696e+10
0000d0 4b f7 1d 50 b4 f5 28 51 d4 27 8b 50 16 99 47 51
       1.0600918e+10 4.5354795e+10 1.8677146e+10 5.357918e+10
0000e0 d2 d6 e7 50 29 70 17 50 9a da 02 51 50 e3 0b 51
       3.1116923e+10 1.0162841e+10 3.512583e+10 3.7550883e+10
0000f0 bd 6c 6d 51 cc 7f 49 50 f8 c3 e7 51 e3 0e 4d 4f
       6.3733223e+10 1.3522383e+10 1.2442816e+11 3.440305e+09
000100 be 1c 0b 51 40 a0 0d 51 f1 bc 01 50 55 a7 14 51
       3.7342667e+10 3.8017434e+10 8.706573e+09 3.9903908e+10
000110 ff 9f 06 50 1a fa 1f 52 ae e7 a7 50 bd c2 11 51
       9.03453e+09 1.7177395e+11 2.2535827e+10 3.912734e+10
000120 c9 d6 bf 50 5b 73 ce 50 ed da 8a 4f e7 94 b6 50
       2.5748195e+10 2.7709331e+10 4.6592067e+09 2.4505694e+10
000130 26 44 f8 50 9d f0 02 51 b8 b9 0c 51 37 db 21 51
       3.3321726e+10 3.514891e+10 3.7775704e+10 4.344797e+10
000140 70 20 37 51 6e ad 8d 50 4c 6b c3 50 be 40 11 51
       4.91577e+10 1.9015627e+10 2.6228711e+10 3.899103e+10
000150 28 23 fa 50 95 da 10 51 2c dd 24 50 8b 63 f4 4e
       3.3572864e+10 3.8883906e+10 1.1063833e+10 2.0500822e+09
000160 38 6a b7 50 70 86 49 4f d1 55 fc 50 9f a5 00 51
       2.4617533e+10 3.381031e+09 3.386786e+10 3.4533405e+10
000170 0c 72 15 51 56 92 0b 51 1a 6e c6 50 82 0a 7e 50
       4.011647e+10 3.7465973e+10 2.6632835e+10 1.7048406e+10
000180 f2 61 78 51 bc 91 a0 50 f7 68 44 51 93 71 4d 50
       6.6674696e+10 2.1551243e+10 5.2723413e+10 1.378709e+10
000190 7a 9e f3 50 e5 71 a2 50 00 09 d2 4f b8 a0 12 50
       3.2697995e+10 2.1802985e+10 7.0476104e+09 9.840026e+09
0001a0 61 83 11 51 8e f2 8c 50 9e a9 80 50 0d ef ca 50
       3.90609e+10 1.891765e+10 1.7268797e+10 2.7237313e+10
0001b0 1d b2 ae 4f 96 56 35 51 6f 36 3c 50 0e d6 c1 50
       5.861817e+09 4.867761e+10 1.2630736e+10 2.6016248e+10
0001c0 76 a3 1b 51 bc d1 ca 50 8b 5b 72 50 e5 ee 28 51
       4.1778897e+10 2.7221942e+10 1.6264343e+10 4.5347656e+10
0001d0 ac 36 bd 50 eb 34 50 51 ec 3b b0 50 5e 88 ed 51
       2.5395814e+10 5.5890063e+10 2.3653736e+10 1.2752439e+11
0001e0 6e 5b 4d 50 25 ac 15 52 c2 b5 04 52 5a 67 d8 50
       1.3781285e+10 1.6070956e+11 1.4249627e+11 2.9045215e+10
0001f0 20 07 68 51 eb 6f 21 51 07 06 2a 50 1d 3f 3a 51
       6.2284497e+10 4.3335463e+10 1.1410087e+10 4.9995174e+10

fc2.weight f4 [64, 128]
000000 a6 e2 2c 3d 9b 00 06 3e f0 89 8f bb 9c c3 7b bb
       0.042208336 0.13086168 -0.004380457 -0.0038416153
000010 89 82 3d bf e4 b5 5c bd 4f bf 72 3d dc 8a 06 be
       -0.74027306 -0.053884402 0.059264477 -0.13138908
000020 29 d8 63 bc e7 e4 e0 3e c8 42 a0 be 7b 23 d1 bd
       -0.013906517 0.4392464 -0.3130095 -0.102118455
000030 bb 37 a4 be be 9c 7f be 2d 3c 84 be d9 9c b8 3d
       -0.3207377 -0.24962136 -0.2582716 0.09014291
000040 bc e7 1b 3c 60 16 82 be d7 d8 d8 3e 54 bf 89 bd
       0.009515699 -0.25407696 0.42352936 -0.06725946
000050 2d 4c 3c bf 2c 1f 18 be 47 3e 68 3e 79 b8 21 bf
       -0.73553735 -0.14855641 0.22680007 -0.6317211
000060 09 26 74 3e 51 2b 3f bd 7d fc fc 3d 61 8d c7 be
       0.23842634 -0.04667217 0.12352846 -0.3897505
000070 5d 9c c0 be 1e 12 66 bd 64 c5 f2 be 9d 5f 9c 3b
       -0.37619296 -0.05616962 -0.47416222 0.00477214
000080 ae 8d f7 be a7 e8 18 be 1e 7c 8a be 79 33 c7 bd
       -0.4835028 -0.149325 -0.2704782 -0.097266145
000090 aa c2 b6 bd 5c 44 fa bc 17 a1 23 3d 45 06 63 be
       -0.08923848 -0.030550174 0.03994855 -0.2217036
0000a0 db 0f 06 bd 05 b6 e5 3c 67 c9 43 bf 3b d2 05 be
       -0.032729965 0.028040895 -0.7647919 -0.13068478
0000b0 f1 3c 85 be d6 c8 9f be 3c a5 a2 3e 33 3e 70 be
       -0.26023057 -0.31207913 0.3176669 -0.23461227
0000c0 91 9e 29 be 5f 0f 6e 3d 23 c3 91 3e 5d 2e 07 3e
       -0.16564395 0.058120128 0.2846919 0.1320128
0000d0 0a 23 19 bf 75 1d f2 be 7c 74 43 be 39 a5 74 3e
       -0.5981909 -0.472881 -0.19087404 0.23891152
0000e0 d3 90 bb be 98 9e df 3e e6 63 b4 bd e5 58 b1 3e
       -0.3663393 0.43675685 -0.088081166 0.34638134
0000f0 38 dd c1 3e 1d 72 d2 bc 57 3c f8 3e c4 4c 0c bf
       0.3786409 -0.02568918 0.48483536 -0.54804635
000100 51 22 90 3e f7 9b 82 be 23 5e 56 be 8e 83 ab bd
       0.2815118 -0.25509617 -0.20934348 -0.083747014
000110 fe 77 0c be 58 55 a2 bd 06 0b 20 3e f7 55 f0 bc
       -0.13717648 -0.07926434 0.15629205 -0.029337866
000120 3b 2f 30 3f 9a 4a 46 3d 5e 3e f6 be 8e f2 35 be
       0.6882207 0.04841099 -0.48094457 -0.17768309
000130 11 e8 9a 3a 3a c0 c3 be 2d bd 40 3e 32 94 b3 bd
       0.0011818429 -0.38232595 0.18822165 -0.087685004
000140 5d da 18 3f 39 3c 5c be 1b 60 c8 be 7d 79 1a 3d
       0.59708196 -0.21507348 -0.39135823 0.037713517
000150 2d 94 90 be 0d d1 38 be d5 b9 53 be d2 5b 7c 3e
       -0.2823805 -0.18048497 -0.20676358 0.24644402
000160 43 cf 19 bf 9e d3 89 3d 54 54 e0 bd 90 9b 96 be
       -0.6008188 0.06729816 -0.10953584 -0.2941556
000170 b9 87 20 3f 5d d9 1a be d7 a0 be be ae 08 5a be
       0.62707096 -0.1512198 -0.37232086 -0.21292374
000180 eb 0c fd be b9 92 ba bd 8c db 21 3d c8 db a5 3e
       -0.49423918 -0.091100164 0.039516017 0.32394242
000190 bf 0a 33 be aa 49 0f be 72 55 80 be 94 b3 4c bf
       -0.17484568 -0.13992944 -0.2506519 -0.79961514
0001a0 50 0f c3 3d 91 20 b6 3e 27 4d 0c bd be 48 ce 3e
       0.09524405 0.3557172 -0.034253266 0.40289873
0001b0 b6 4e 03 3e 05 a1 ac 3e 8b bb e6 be e5 32 53 be
       0.12822995 0.33716598 -0.4506496 -0.20624883
0001c0 35 bb 82 3e 0f b0 ee 3e a1 af 90 be a5 f5 c6 be
       0.25533453 0.46618697 -0.28258994 -0.38859287
0001d0 f7 d2 e9 be 61 26 0b 3e 9f 2c 09 bc c2 ad eb 3e
       -0.45668766 0.13588859 -0.008372455 0.46031004
0001e0 6d dc 1f 3e 66 3e bf 3e 2e c3 a4 3e d0 2d e8 be
       0.1561143 0.37352294 0.3218016 -0.45347452
0001f0 95 1e 71 3e 38 10 bd be 23 e0 0a be 11 46 4c be
       0.23546822 -0.36926436 -0.13562064 -0.19948603
000200 20 8f 90 3b 14 d7 86 3e 3a cb 0a 3e 71 fd 6f 3d
       0.004411593 0.26335967 0.13554087 0.05859131
000210 a2 85 a5 3e d5 f5 d3 bc e6 43 27 3e 6e 0f bb bb
       0.32328516 -0.025874058 0.16334495 -0.0057086265
000220 d2 a9 68 3e d7 00 83 be b8 61 9f 3e 53 ef 37 3e
       0.22721031 -0.25586578 0.3112924 0.17962389
000230 1d fc 41 be 8e 8b 3b bd 93 9f 22 3e 1f 68 9b 3d
       -0.1894383 -0.045787387 0.15881185 0.07588219
000240 4f 00 e8 3e 65 1b 9c bc 5e 48 00 3e af 59 ea 3d
       0.45312735 -0.019056031 0.12527606 0.11442887
000250 04 70 1d bd 3b 4f 8a 3b 6d 28 93 3c 30 3f 93 3d
       -0.038436905 0.004220871 0.017963612 0.071897864
000260 86 f0 0a 3e 19 bc 98 3d 8d 52 d5 3e 66 8e 85 be
       0.13568315 0.07457752 0.41664544 -0.26085204
000270 2a e0 c7 3e 45 6d e8 3d b0 a3 b5 bc c8 c4 06 bd
       0.3903821 0.113489665 -0.022172779 -0.03290251
000280 75 bc 34 3d 99 ec 19 3d 69 50 66 3d 95 9a 65 be
       0.04412504 0.037579153 0.05622903 -0.2242225
000290 e8 40 3e 3d 78 f0 f8 3d d2 25 a2 3e 74 75 5c 3e
       0.04644862 0.12155241 0.3166948 0.2152918
0002a0 f2 76 45 be 11 5b 19 bc b0 92 b6 3e 86 84 52 be
       -0.19283655 -0.009360091 0.3565879 -0.20558366
0002b0 ba 5a 80 3c f7 fd 04 bd fc 7e a1 3d c6 05 60 3e
       0.015668262 -0.032468762 0.078855485 0.21877202
0002c0 09 0e ef 3c ef 36 15 be 5b 71 71 3e cf b2 ec be
       0.029181497 -0.14571737 0.23578398 -0.4623017
0002d0 28 28 86 39 26 3b 53 3e 79 a1 cd 3e 6c d2 12 bc
       0.0002558839 0.20628032 0.40162256 -0.008961301
0002e0 f6 d3 b6 be 3f 07 58 bd 03 83 76 bd 8c 13 1e 3f
       -0.35708588 -0.052741285 -0.060183536 0.61748576
0002f0 7e 05 8b be a9 25 87 bc 93 6f 04 3e ac 41 62 3e
       -0.27152628 -0.01649745 0.12933187 0.22095364
000300 4d 41 48 3e 20 21 74 be 2b ab b7 bd fc 45 2a 3f
       0.1955616 -0.23840761 -0.089681946 0.6651304
000310 cb 74 b0 3c f2 b5 9a 3e 48 00 10 bd 0d 00 09 3e
       0.021540066 0.30216938 -0.03515652 0.13378926
000320 ca d5 51 3e d9 86 e9 3e 89 40 16 3e 24 89 b4 3e
       0.2049171 0.45610693 0.14673056 0.3526088
000330 71 20 88 3e 3a 6c cb 3d a4 c0 b7 3d 3b 53 5b 3e
       0.2658725 0.09932752 0.0897229 0.21418469
000340 02 da 98 bc 7a f9 4a 3d 18 b2 fd bd 43 a4 5e 3e
       -0.018658642 0.049554326 -0.12387484 0.21742348
000350 a9 ec 33 bd d6 f4 15 be 1e a7 3f be 5f 17 87 bd
       -0.04392687 -0.14644179 -0.18716094 -0.065962546
000360 4d 12 59 3f b6 24 fe bc d0 ea 2e 3e c1 c8 15 3e
       0.8479355 -0.031023365 0.17081761 0.14627363
000370 9f f7 c5 3d ed 60 84 3e 79 c5 8b be 8e 37 eb 3d
       0.096663706 0.25855199 -0.27299097 0.114852056
000380 b0 99 42 3f 25 e0 06 bd 9c 0d 16 bd bb 9d bc bc
       0.7601576 -0.032928605 -0.036634073 -0.02302443
000390 ed cd be 3e 06 87 90 bd 69 e6 1a 3e a1 9d 04 be
       0.37266484 -0.07057004 0.15126957 -0.12950756
0003a0 c7 9b c2 3d ec 5e 5b be 05 b2 4c 3d 4f f6 e6 be
       0.095023684 -0.21422929 0.04997446 -0.45109794
0003b0 66 bc fd bd 04 b3 b1 be e5 fd 44 3e 75 ea bc bc
       -0.1238945 -0.3470689 0.19237478 -0.023061017
0003c0 96 96 8c bd a9 49 ea be 7c b2 5b 3c 5a c1 ba 3d
       -0.068646595 -0.45759323 0.013409253 0.0911891
0003d0 65 b5 12 be 9a d0 0c 3c a2 47 53 3e 3f 5b 49 3e
       -0.14327009 0.008594656 0.20632794 0.19663714
0003e0 83 7d 43 3e 0c b8 05 be 81 c2 41 3e 83 4d 78 be
       0.19090848 -0.1305849 0.18921854 -0.24248318
0003f0 8e f3 c1 be 0c d4 c5 bd 64 8b e2 3e 24 06 0c 3f
       -0.3788113 -0.09659585 0.44246972 0.5469687

fc2.bias f4 [64]
000000 e5 b6 a5 3d cd dd 30 3c 91 fd c9 bb 03 f4 8e bd
       0.08091525 0.010795069 -0.0061642607 -0.06980135
000010 7f dd af bd d9 ec 6a 3d 9b 22 28 3d c7 84 99 bd
       -0.08587169 0.05735478 0.041048627 -0.074960284
000020 14 82 47 3d c3 5c 71 3d a2 fe 24 bd 8d 1e bd 3d
       0.048708037 0.058926355 -0.0402819 0.09234343
000030 69 05 83 bd 5d 4c 6d 3d ad a8 a1 bd 1b 0d 81 bd
       -0.06397516 0.057934154 -0.078935005 -0.06301328
000040 1d e1 62 bd 24 c7 82 bd af 04 bf bb ea ee 0f 3d
       -0.055390466 -0.06385639 -0.0058294157 0.035139956
000050 58 83 52 bd 92 ba 98 bd 05 aa 55 3d 22 1a c4 3c
       -0.05139479 -0.074574605 0.052164096 0.023938242
000060 25 e2 5a 3c 9d e0 3a 3d c2 99 30 3d b4 24 39 bc
       0.013359581 0.045624364 0.043115385 -0.011300255
000070 25 86 01 39 ba 64 03 bc da ce 71 3d 25 37 0a bd
       0.00012352371 -0.008019621 0.05903516 -0.033743996
000080 13 59 df bc f2 f4 3c 3d 9e 29 c8 3c 1d a4 b4 bc
       -0.027264154 0.046132036 0.024433907 -0.022050912
000090 5e 60 c7 3c 96 b9 13 3d b3 3e 46 bd 8c 73 75 3d
       0.024337944 0.03606566 -0.04839964 0.059924647
0000a0 13 42 82 3c 79 f6 0c 3d bc ec b6 3d 96 1d 9d 3c
       0.015900647 0.034414742 0.08931872 0.019179147
0000b0 a0 fd 55 bd 1b d8 6c bd 42 1e e8 bc c9 08 a1 3a
       -0.05224383 -0.05782328 -0.02833474 0.0012285943
0000c0 52 b2 47 3d 14 08 1a bd bd d2 a6 3d d6 09 69 bd
       0.048754044 -0.03760536 0.08145664 -0.056894146
0000d0 44 c0 89 3d dd 55 1a 3d 89 5b a5 bd 88 72 fb ba
       0.06726125 0.03767954 -0.080740996 -0.0019183913
0000e0 5f ad ab 3d a7 7f 48 bc 64 aa 81 3d ee 42 94 bd
       0.08382677 -0.012237466 0.063313276 -0.07239328
0000f0 8a 84 70 bd 62 2b 1e bd c5 74 31 3d 17 06 2c bb
       -0.05872015 -0.03861559 0.04332425 -0.0026248747

fc2_bn.weight f4 [64]
000000 22 39 28 3f 28 59 f4 3e ed 80 22 3f d3 8c 96 3e
       0.6571218 0.4772427 0.63477975 0.29404315
000010 3a e6 83 3e f8 76 08 3f 22 70 11 3f 89 49 1f 3f
       0.25761586 0.5330653 0.56811726 0.6222158
000020 52 79 17 3f 7d 7e 89 3e 5e 43 30 3f a2 1c 0a 3f
       0.59169495 0.26854315 0.68852794 0.5394994
000030 98 a2 aa 3e e3 0a 2b 3f 4a 49 25 3f f0 07 08 3f
       0.33327174 0.66813487 0.64564955 0.5313711
000040 c8 e9 31 3f 23 e4 41 3f 2f 80 3d 3f e2 06 34 3f
       0.69497347 0.75738734 0.7402372 0.70323
000050 56 34 8f 3e 95 7e a3 3e 1e 84 d7 3e 25 fb 75 3f
       0.27969617 0.31932512 0.42092985 0.9608634
000060 ac 5a 1e 3e f6 ad 41 3f b2 45 52 3e 2a 49 0c 3f
       0.15464276 0.7565607 0.20534399 0.5479914
000070 a0 ee 00 3f 49 12 9b 3e 56 21 1c 3f 57 d6 eb 3e
       0.5036411 0.30287388 0.60988367 0.46061966
000080 71 23 a3 3e 5d 70 08 3f 72 65 bd 3e 9f fc 08 3f
       0.31862977 0.5329645 0.3699146 0.5351047
000090 59 0e e2 3e c7 60 b8 3e 6c 62 1d 3f bc d4 a0 3e
       0.4415157 0.36011335 0.61478305 0.31412303
0000a0 e1 0a bf 3e 61 67 09 3f 4e 44 06 3f 26 e8 82 3e
       0.37312987 0.5367337 0.52447975 0.2556774
0000b0 95 6b fe 3e 36 36 ed 3e 70 cb c1 3e fa c9 da 3d
       0.49691454 0.46330422 0.37850523 0.10683055
0000c0 98 d1 1a 3f c8 2f 02 3e 81 29 b9 3e 2b e7 15 3f
       0.60476065 0.1271354 0.36164477 0.5855586
0000d0 f6 5b c6 3e f9 9b c1 3e e1 3f 8d 3e 02 18 27 3f
       0.38742036 0.3781431 0.27587798 0.6527101
0000e0 4a b6 80 3e a8 ff b9 3e 3c 1d a1 3e ae 56 a1 3e
       0.25139076 0.36327863 0.31467617 0.31511444
0000f0 98 24 64 3f 93 23 29 3e be 44 0f 3f 09 59 ee 3e
       0.8911834 0.16517477 0.5596427 0.46552303

fc2_bn.bias f4 [64]
000000 48 c6 3a be b9 8c 84 be 74 c4 6f be 08 cb 92 be
       -0.18239701 -0.25888613 -0.23414785 -0.28670526
000010 8d fc b6 be ba 8b 4b be ef 57 cd bd f6 c7 70 be
       -0.35739556 -0.1987752 -0.100265376 -0.23513779
000020 ea ea 44 bd c1 18 c9 be 46 8a 0b bd 91 15 30 be
       -0.048075594 -0.39276698 -0.034067415 -0.17195727
000030 f4 56 e8 be d2 bf 29 bd 16 7a 32 bd 95 cd 31 be
       -0.4537884 -0.0414427 -0.04357346 -0.1736358
000040 e6 1e b7 bd 81 73 2e 3e 4a 43 16 bd f2 2d ec bd
       -0.0894144 0.17036249 -0.036685266 -0.11532201
000050 42 ed a3 be 06 3b 1a 3e 3c 09 62 3e 30 a5 fe 3d
       -0.3201695 0.15061578 0.22073835 0.12433851
000060 1d 66 81 be ab 0c ad be 64 85 53 be e8 b8 46 bb
       -0.2527322 -0.33798727 -0.20656353 -0.0030322615
000070 b1 a9 39 3e d8 1a a9 be 7f 1d 08 bd e4 f7 f1 3d
       0.18131138 -0.33028293 -0.033231255 0.118148595
000080 d3 8f 93 be 04 51 57 3d 2e 0b c6 be 86 9e 48 be
       -0.28820667 0.052567497 -0.38680404 -0.19591722
000090 43 8b ad ba 5f b4 9c be 59 2b e0 3d f2 14 cf be
       -0.0013240356 -0.30606362 0.10945768 -0.40445668
0000a0 67 1d fa be 72 35 2e be 22 4a 85 bc c0 56 cc be
       -0.48850557 -0.17012575 -0.0162707 -0.39909935
0000b0 26 b8 f9 bd bb b7 1a 3d 3f bf de 3d 90 02 39 be
       -0.12193327 0.037772875 0.10876321 -0.18067384
0000c0 c4 fc cc be ad 42 6b be 31 5d ca 3d 97 fb 09 bf
       -0.40036595 -0.22974654 0.09881056 -0.5389952
0000d0 63 d2 51 be 16 5b fa be cb af 87 be fb a0 72 be
       -0.20490412 -0.48897618 -0.26501307 -0.23694222
0000e0 f7 83 c9 bd a9 14 23 be 4e a1 84 be 1e 3b 1b be
       -0.098396234 -0.1592585 -0.25904316 -0.1515927
0000f0 24 8d 0a bd 2e ab 65 be 40 66 3c 3e c6 ad b3 be
       -0.03382601 -0.22428581 0.1839838 -0.35093516

fc2_bn.running_mean f4 [64]
000000 68 53 14 c1 ca e0 db 40 c2 79 0d c1 7a 19 04 c1
       -9.270363 6.87119 -8.842226 -8.25622
000010 3b 7d e3 c0 b6 a9 1d c1 f5 c6 4e c1 db 3f 66 c1
       -7.109037 -9.853933 -12.9235735 -14.39059
000020 ca 7b c5 c0 9a ed 8f c0 a4 34 61 c1 09 43 1c c1
       -6.171361 -4.497754 -14.075352 -9.766366
000030 3c 03 8b c0 9c de 24 c1 1a 56 07 c1 7a 64 b4 c0
       -4.344145 -10.304348 -8.458521 -5.637265
000040 82 fb 0a c1 77 cd 8c c1 d2 ec dd c0 65 31 5a c1
       -8.686403 -17.600325 -6.9351587 -13.637059
000050 87 b0 ef c0 b1 e7 43 c1 70 5b 03 c1 4e 16 2c c1
       -7.4902987 -12.244065 -8.209824 -10.7554455
000060 d3 cb a5 c0 d9 f0 6d c1 b2 69 a1 c0 9d a0 48 c1
       -5.181131 -14.871301 -5.0441523 -12.539212
000070 69 2b f2 c0 fb 90 39 c0 b3 8d 0d c1 ff f9 4a c1
       -7.567799 -2.899474 -8.847095 -12.686034
000080 ea 75 9e c0 35 de 28 c1 31 53 06 41 d4 4d 18 3f
       -4.951894 -10.55425 8.39531 0.59493756
000090 ad b3 24 c1 01 5d bc c0 0a 64 4a c1 0e 8e cd c0
       -10.293866 -5.886353 -12.649424 -6.4235907
0000a0 fe 83 22 41 86 02 e0 c0 ab 39 01 c1 16 ba 63 c0
       10.157225 -7.000308 -8.076579 -3.5582328
0000b0 f2 78 4c c1 a2 8d 03 c1 b8 78 52 c1 11 90 1b c0
       -12.779528 -8.222078 -13.154472 -2.430668
0000c0 9e 3f 5e c1 ff b5 9e c0 ff a6 27 c1 61 76 19 3f
       -13.890532 -4.9597163 -10.478271 0.59946257
0000d0 f8 22 5e c0 6a f0 fe c0 69 ec c0 c0 b7 9a c6 c0
       -3.4708843 -7.9668474 -6.0288587 -6.206386
0000e0 c0 a7 55 c1 6f ca 11 c1 15 7f 9e bf d4 56 cf c0
       -13.353455 -9.111922 -1.2382532 -6.479349
0000f0 3e d9 22 c1 9f 34 bb bf 77 d6 12 c1 5f db d0 bf
       -10.178038 -1.4625434 -9.17736 -1.6316947

fc2_bn.running_var f4 [64]
000000 bc 8e ba 42 d2 24 d5 41 03 90 2e 43 8c 64 17 42
       93.27878 26.642979 174.56255 37.84819
000010 b2 cd 84 41 a3 b4 15 43 6b 1a 2f 43 6c e8 ae 42
       16.600437 149.70561 175.1032 87.45395
000020 a0 cc 97 42 95 54 d4 41 0b bd 90 43 57 38 ac 42
       75.89966 26.5413 289.4769 86.11004
000030 c4 65 1e 42 1d 80 ea 42 6f 1b 33 42 82 7b fe 41
       39.59938 117.25022 44.77679 31.810307
000040 b6 99 e5 42 eb 11 2b 43 88 20 98 42 56 33 98 43
       114.80022 171.06999 76.06354 304.40106
000050 58 d4 9c 41 ea 37 82 42 a7 21 33 42 85 12 f2 42
       19.603683 65.10921 44.782864 121.03617
000060 c6 0e 1c 41 1b 66 4e 42 48 9a 3c 41 4d d5 5b 42
       9.753607 51.599712 11.787666 54.9583
000070 30 43 82 42 f6 d6 8f 41 3a 63 f6 42 fd d3 1e 42
       65.131226 17.979961 123.1938 39.70702
000080 b6 da 29 41 8a 91 10 43 4c 93 8a 42 4c 9f 03 43
       10.615896 144.56851 69.28769 131.62225
000090 d1 c2 92 42 81 ea 83 42 ac b5 12 42 8b 46 96 41
       73.3805 65.958015 36.677414 18.784445
0000a0 9a 8f 6d 42 2a 84 92 42 fb 28 16 43 63 d4 c6 41
       59.390236 73.25813 150.16008 24.853704
0000b0 2d 8e 3a 42 97 38 c4 42 71 d0 42 43 05 0e 99 41
       46.638844 98.11053 194.81422 19.131845
0000c0 d3 aa c9 42 b3 7f b0 40 3b 45 48 42 22 d5 c5 42
       100.83364 5.5155883 50.067608 98.916275
0000d0 e6 e5 de 40 81 c2 b0 41 28 75 23 42 5a bd 9d 42
       6.965564 22.094973 40.86441 78.86983
0000e0 03 b1 73 42 40 8c ea 42 79 a7 bc 41 e1 9f 32 42
       60.922863 117.273926 23.581774 44.65613
0000f0 da 0b c7 42 e3 e0 11 41 70 ba b3 42 28 31 a5 41
       99.52315 9.117404 89.864136 20.649002

fc3.weight f4 [1, 64]
000000 38 ce 23 be 99 55 9a bd db 5e f7 bd c1 3d 9e bc
       -0.15996635 -0.07535858 -0.12078639 -0.019316556
000010 38 87 2e bd 5c 86 58 bd 4c 61 38 be 32 a7 37 be
       -0.042609423 -0.05286251 -0.18005866 -0.17934874
000020 12 55 ef bd 1f 45 a0 3c 57 20 34 be d7 92 c5 bd
       -0.11686148 0.01956421 -0.17590462 -0.09647148
000030 05 87 ac 39 0a 9a 22 be eb 6b 1d be 33 22 9d bd
       0.00032906994 -0.15879074 -0.15373199 -0.076725386
000040 c2 19 28 be fb d6 4f be bf 99 47 be 52 44 0a be
       -0.16416076 -0.20296852 -0.19492243 -0.13502625
000050 db d6 bb bb 5e 9b 62 bd 02 16 ff bd e8 c8 9c be
       -0.0057324 -0.05532395 -0.124553695 -0.3062203
000060 aa c0 94 3a 8f be 26 be 2d 83 b4 ba 08 ee ba bd
       0.0011348922 -0.1628363 -0.0013772004 -0.09127432
000070 98 ba 36 be cf 2a 17 bc c1 ba e2 bd f8 3e df bd
       -0.17844617 -0.009226515 -0.11070777 -0.10900682
000080 af 77 ab 3c 97 1b c0 bd 3b 0b 76 bd fd b0 a6 bd
       0.020931093 -0.09380262 -0.060069304 -0.081392266
000090 a2 af a6 bd e1 d8 fb bc 49 9d 27 be 2c 48 4e 3d
       -0.08138968 -0.030743064 -0.16368593 0.050361797
0000a0 66 60 1e bd b7 c9 64 bd 43 bc 81 bd 23 37 70 bb
       -0.03866615 -0.055856433 -0.06334736 -0.0036653958
0000b0 b2 75 2c bd 00 e9 92 bd 84 7f 17 bd d4 0b a1 bc
       -0.04210443 -0.071733475 -0.036986843 -0.01965896
0000c0 73 0c 12 be f8 9f 5d 3a 7f 02 7c bd 82 3d 23 be
       -0.14262562 0.0008454318 -0.061525818 -0.15941432
0000d0 b8 95 17 3b 55 ed 91 bd 1d 01 43 3c 54 a2 0e be
       0.002313001 -0.071253456 0.011902121 -0.13929111
0000e0 9e 5f 29 bc f3 09 3b bd b5 68 e6 bc 81 7c f3 bc
       -0.010337738 -0.045663785 -0.0281261 -0.029722454
0000f0 93 4c 73 be 6d e0 bb 3c 95 84 10 be 17 e7 96 bd
       -0.2375968 0.022934163 -0.14113076 -0.07368296
