weigh/2.pt (torch, 78784 bytes, 13 tensors)

fc1.weight f4 [128, 74]
-0.4169603 1.0367991 0.13128112 -0.16394755 -0.66293925 0.028320385 0.046936996 -0.03452581
-0.03165031 0.35828376 0.5087563 0.97256386 0.68473685 -0.032839198 -0.11439464 0.33977386
-0.286226 -0.15965469 -0.8572797 0.040849335 0.02552536 0.07950341 0.1489592 0.6692857
0.16727854 -0.887065 -0.35180357 -0.34393558 0.06959136 -0.15662307 -0.22353815 -0.098025315
-0.35348958 -0.7105658 -0.53786474 0.113307334 -0.45074615 0.7848833 1.30837 0.010173045
-0.110721365 -0.047330026 0.20041679 -0.004011332 0.31753284 0.054604914 0.54371095 -0.28271037
0.027109548 0.5496246 0.11517659 0.37226465 -0.17576055 0.018665478 -0.30036357 0.037534922
0.05201322 0.02054012 -0.05303479 -0.42011058 0.009290866 0.0558637 -0.013906303 0.008209995
-0.08550593 0.047886055 -0.048394617 -0.06983231 -0.03954681 -0.12030427 -0.44042698 -0.32883763
-0.466379 -0.041491672 0.073128074 -0.6843735 -0.8246766 -0.40888616 0.7096366 -0.17158285
0.07867424 -0.17336917 -0.04395133 -0.019383794 -0.13741937 0.30247602 0.45451307 -0.121627755
-0.02763547 0.28029633 0.10048059 0.09470666 0.96623087 -0.07521157 0.08940398 -0.015060421
-0.18142124 0.0145263905 -0.47895333 0.6795085 0.6739813 0.8342774 0.73991704 -0.15288474
0.06334119 -0.11484262 0.12703678 0.75142837 0.49814746 -0.1142392 0.007500707 -1.4925154
-1.5435112 0.1528418 -0.40012655 -0.2820504 -0.5551439 0.13447598 -0.39358822 0.0045762016
-0.7453789 1.1480731 0.013360947 0.0062961634 0.0287586 -0.14082086 -0.27020276 0.045893714
0.4577774 -0.09041325 0.020227745 0.107827574 -0.049817555 0.016328799 -0.05677443 -0.21059968
-0.5771242 0.0847842 -0.037409756 -0.1567866 0.092302464 -0.07891415 0.22376123 0.10597029
-0.7566524 0.39977923 0.13716635 0.67116374 -0.03294916 0.4224061 0.5469582 0.21874854
-0.30803084 0.10977238 -0.08189978 -0.036603473 0.15710089 -0.80619854 0.73323596 1.4558612
0.70173186 0.5087537 -0.04075116 0.20260513 0.048874833 -0.7889782 -0.9257709 0.13697724
0.0908566 0.011381374 0.4816751 0.60011405 -0.0074378713 -0.91571593 -0.6374509 -0.646762
0.16137642 -0.09445445 0.25785398 0.19389075 -0.3548483 -0.5012457 0.08927722 0.42720154
-0.55341434 1.0297356 1.6831174 0.11906857 -0.53959125 -0.08553449 0.05261037 0.20732564
-0.5442182 0.25635642 -0.5913246 -0.4342462 0.1062554 -0.25393313 0.0015040115 0.32159597
-0.10625023 0.012186527 0.9707409 0.12885648 0.05049531 0.047522962 0.0933487 -0.3125079
-0.021942537 0.047151916 0.1539612 0.12414509 -0.13869654 0.07094351 0.06581555 -0.02225739
0.10557486 -0.100122765 -0.22514202 0.70748246 -0.002982744 -0.027948681 0.032071907 -0.093766525
-0.07509153 -0.0033362925 -0.11144058 -0.18588501 0.07598986 0.17759462 0.13827802 0.01623675
-0.012741029 -0.052197002 -0.12491375 0.10317883 -0.000607417 0.08092678 0.0022407793 0.15032738
0.19733521 0.059517846 0.013407454 -0.10567457 -0.2685778 0.049101863 -0.03752624 0.026832826
0.153337 0.00044073095 -0.1619889 0.037516255 0.111819044 0.06074803 -0.065847114 -0.0318876
00000000: d27b d5be d5b5 843f 8f6e 063e dee1 27be
00000010: 63b6 29bf 2700 e83c 0241 403d f06a 0dbd
00000020: c1a3 01bd f870 b73e da3d 023f f2f9 783f
00000030: ea4a 2f3f 6582 06bd bd47 eabd d7f6 ad3e
00000040: 378c 92be 857c 23be af76 5bbf a251 273d
00000050: 8f1a d13c afd2 a23d c388 183e 4f56 2b3f
00000060: 114b 2b3e b116 63bf 991f b4be 5318 b0be
00000070: ea85 8e3d cc61 20be 2fe7 64be 7fc1 c8bd
00000080: 96fc b4be a4e7 35bf 81b1 09bf ad0d e83d
00000090: 33c8 e6be 1dee 483f ab78 a73f d8ac 263c
000000a0: e2c1 e2bd 21dd 41bd 0f3a 4d3e 7e71 83bb
000000b0: aa93 a23e 67a9 5f3d a430 0b3f 6abf 90be
000000c0: d814 de3c 33b4 0c3f b4e1 eb3d 7999 be3e
000000d0: 93fa 33be 58e8 983c 41c9 99be 38be 193d
000000e0: d00b 553d c143 a83c 023b 59bd bc18 d7be
000000f0: b738 183c 56d1 643d 43d7 63bc 3783 063c
00000100: bc1d afbd 2b24 443d 6f39 46bd 3e04 8fbd
00000110: d6fb 21bd 1662 f6bd a57f e1be 685d a8be
00000120: 3ac9 eebe 2cf3 29bd 2cc4 953d 1a33 2fbf
00000130: 011e 53bf 8759 d1be bfaa 353f 6ab3 2fbe
00000140: f61f a13d b087 31be 4f06 34bd c3ca 9ebc
00000150: aab7 0cbe 23de 9a3e f0b5 e83e f917 f9bd
00000160: c863 e2bc 0083 8f3e c4c8 cd3d 91f5 c13d
00000170: e85a 773f 8608 9abd 6f19 b73d fcbf 76bc
00000180: 7dc6 39be 1900 6e3c 5f39 f5be 45f4 2d3f
00000190: 0a8a 2c3f 3493 553f 346b 3d3f d18d 1cbe
000001a0: 07b9 813d 9c32 ebbd ee15 023e 9c5d 403f
000001b0: 2f0d ff3e 3ef6 e9bd 7ec8 f53b bf0a bfbf
000001c0: c691 c5bf 9082 1c3e 63dd ccbe e968 90be
000001d0: e91d 0ebf 12b4 093e 6584 c9be f6f3 953b
000001e0: 27d1 3ebf 0ff4 923f e0e7 5a3c 0c50 ce3b
000001f0: 2897 eb3c 5833 10be 0458 8abe 0cfb 3b3d
00000200: cd61 ea3e 952a b9bd a8b4 a53c b4d4 dc3d
00000210: 7e0d 4cbd f9c3 853c 4e8c 68bd 71a7 57be
00000220: 69be 13bf 57a3 ad3d f93a 19bd ab8c 20be
00000230: 1309 bd3d be9d a1bd aa21 653e f406 d93d
00000240: f9b3 41bf ddaf cc3e 5675 0c3e 63d1 2b3f
00000250: b3f5 06bd 9d45 d83e 7405 0c3f 9eff 5f3e
00000260: 38b6 9dbe 57d0 e03d 12bb a7bd 86ed 15bd
00000270: 0edf 203e 0763 4ebf 5ab5 3b3f a959 ba3f
00000280: b3a4 333f af3d 023f b0ea 26bd b877 4f3e
00000290: fa30 483d 7afa 49bf 52ff 6cbf c343 0c3e
000002a0: 0613 ba3d f178 3a3c 1e9e f63e 13a1 193f
000002b0: 63b9 f3bb 5c6c 6abf fb2f 23bf 3292 25bf
000002c0: dc3f 253e 5671 c1bd 7005 843e 4c8b 463e
000002d0: adae b5be a351 00bf fad6 b63d 29ba da3e
000002e0: 90ac 0dbf 60ce 833f 6470 d73f 39da f33d
000002f0: a722 0abf b52c afbd f97d 573d 2c4d 543e
00000300: e251 0bbf 2641 833e 0d61 17bf 8555 debe
00000310: 6e9c d93d 8603 82be 4022 c53a 3aa8 a43e
00000320: b899 d9bd 00aa 473c 7a82 783f f4f2 033e
00000330: 2cd4 4e3d 70a7 423d 9a2d bf3d 0901 a0be
00000340: d6c0 b3bc 5e22 413d 01a8 1d3e c83f fe3d
00000350: 7706 0ebe d54a 913d 4eca 863d 2155 b6bc
00000360: a237 d83d 2a0d cdbd a18b 66be 921d 353f
00000370: 247a 43bb a2f4 e4bc d55d 033d aa08 c0bd
00000380: 97c9 99bd b3a5 5abb f53a e4bd a458 3ebe
00000390: 92a0 9b3d 5ddb 353e c198 0d3e ef02 853c
000003a0: c0bf 50bc 86cc 55bd c8d2 ffbd 6c4f d33d
000003b0: 113b 1fba f1bc a53d 0ada 123b 6cef 193e
000003c0: 3e12 4a3e fcc8 733d f0aa 5b3c e96b d8bd
000003d0: 0883 89be 091f 493d 1db5 19bd 84d0 db3c
000003e0: 6004 1d3e e811 e739 6be0 25be a5aa 193d
000003f0: 6201 e53d edd2 783d dada 86bd 929c 02bd

fc1.bias f4 [128]
0.0028816063 0.059655357 0.02250868 0.005833715 -0.11465524 0.057361007 -0.029719483 -0.061852273
0.0010262221 0.06228708 -0.07751106 0.10651679 -0.012304633 0.087687194 0.017236514 -0.0015516602
0.09555288 -0.049057893 -0.104847565 -0.06130005 -0.0142064635 0.078088135 -0.029690366 0.009185696
-0.113336764 -0.04860106 0.05083464 0.10421279 0.05793466 -0.09905392 0.10259551 -0.055284254
0.038606137 -0.059194196 0.071930766 -0.101186 0.036154673 -0.06512406 0.0488113 0.010451508
0.05460738 -0.0129206255 -0.058739413 0.03888623 0.09215756 -0.06030092 0.0860946 0.10064758
0.0594524 -0.05011975 -0.079558164 0.035917163 -0.02268688 -0.09190861 -0.105876185 -0.019479567
-0.0604622 0.083621606 0.061403334 0.033473447 0.03413649 0.060593188 0.03765841 -0.08861098
-0.0681239 0.0045980243 0.0046468046 0.0016088915 -0.09756278 -0.04460102 -0.04226785 0.04071386
0.07616878 -0.102629535 0.08146754 -0.00063409156 0.051919557 -0.02571889 0.032947104 -0.10708104
-0.09670028 -0.019771885 0.06513961 -0.042361446 0.059875116 -0.026268834 0.048167072 -0.103205524
-0.08270133 -0.014298581 -0.11435498 -0.05704136 0.10823865 -0.020524994 0.054945078 -0.09926316
0.092565626 0.06898427 0.042729557 0.07397471 -0.017139517 -0.045599006 -0.03846733 0.034253642
-0.0037935732 0.10191624 -0.044761144 -0.054347225 -0.015536627 0.041891932 -0.027020255 -0.09869408
-0.095702775 -0.113564864 -0.05824035 0.05354011 -0.076260544 -0.009590495 -0.033997856 -0.09344226
-0.00016679324 0.017631523 -0.03177143 -0.08344394 0.031019732 -0.08574013 -0.010279557 0.06697871
00000000: 55d9 3c3b 2d59 743d 2064 b83c c028 bf3b
00000010: 5ed0 eabd 60f3 6a3d 4676 f3bc cf58 7dbd
00000020: 4d82 863a bd20 7f3d 1ebe 9ebd 7a25 da3d
00000030: 5f99 49bc 5895 b33d 9733 8d3c 1461 cbba
00000040: 3ab1 c33d eef0 48bd 52ba d6bd c315 7bbd
00000050: 3ac2 68bc acec 9f3d 3639 f3bc 9a7f 163c
00000060: 1b1d e8bd e811 47bd fc37 503d 846d d53d
00000070: e54c 6d3d c8dc cabd 981d d23d be71 62bd
00000080: 7821 1e3d 9d75 72bd 7050 933d 9b3a cfbd
00000090: ec16 143d c35f 85bd 5cee 473d cd3c 2b3c
000000a0: fdab 5f3d 08b1 53bc bd98 70bd 2b47 1f3d
000000b0: 1abd bc3d 19fe 76bd 5e52 b03d 5220 ce3d
000000c0: 5c84 733d 5e4a 4dbd 64ef a2bd e01d 133d
000000d0: d6d9 b9bc 953a bcbd 9dd5 d8bd 9d93 9fbc
000000e0: 36a7 77bd ce41 ab3d 1082 7b3d 741b 093d
000000f0: b4d2 0b3d 9030 783d b43f 1a3d ac79 b5bd
00000100: 8b84 8bbd 06ab 963b 3944 983b 71e1 d23a
00000110: ffce c7bd 8faf 36bd 0e21 2dbd 94c3 263d
00000120: 61fe 9b3d 6f2f d2bd 74d8 a63d 2a39 26ba
00000130: 9aa9 543d 6cb0 d2bc 8bf3 063d 4e4d dbbd
00000140: cc0a c6bd a6f8 a1bc ea67 853d 3283 2dbd
00000150: 9c3f 753d bd31 d7bc d64a 453d 6b5d d3bd
00000160: 515f a9bd 9844 6abc f232 eabd 33a4 69bd
00000170: 3aac dd3d 0824 a8bc 170e 613d 7c4a cbbd
00000180: 0c93 bd3d a047 8d3d 3005 2f3d 0e80 973d
00000190: 2c68 8cbc 06c6 3abd eb8f 1dbd 8c4d 0c3d
000001a0: 999d 78bb 76b9 d03d 7657 37bd 329b 5ebd
000001b0: 568d 7ebc e096 2b3d 9559 ddbc 1f20 cabd
000001c0: d1ff c3bd b294 e8bd 6f8d 6ebd e04c 5b3d
000001d0: 7d2e 9cbd 7421 1dbc 5641 0bbd a85e bfbd
000001e0: 38e5 2eb9 fc6f 903c c222 02bd a8e4 aabd
000001f0: 181d fe3c 8598 afbd 966b 28bc 222c 893d

fc1_bn.weight f4 [128]
1.0887997 1.070545 1.1113414 0.779216 1.1027881 1.0274658 1.1174501 0.9228313
1.1631949 1.0173739 0.94972146 0.9290938 0.9886099 0.8753171 0.91418403 0.84796256
1.0444647 1.1235813 0.87418723 1.043894 0.9414643 0.8393388 1.0301751 1.0096736
0.92433906 0.7734663 0.9658009 1.016388 0.85664636 0.99749404 0.9435065 1.0706942
0.94753975 0.968931 0.9219557 0.8958763 1.044132 1.0402398 1.0090729 0.9752666
0.95520437 0.9739285 1.116805 1.0664291 1.0370156 0.9924251 1.01719 0.918761
1.0235355 0.94630563 0.92795736 1.1158506 0.9834837 0.9511179 1.0741925 0.9097815
0.99694645 1.0378697 0.9801831 0.790705 1.161336 0.9926261 0.9076132 1.0816718
0.9689415 0.8974137 1.0925 0.9592378 0.90532994 0.9566746 0.90825284 1.0252808
1.0288117 0.9529819 0.96614355 1.1365625 0.9741177 1.1263006 1.1933466 1.083425
0.9334438 0.8791431 0.9161614 0.9922591 1.0646867 0.9648578 1.0813954 0.98286283
0.91413707 0.97134215 0.8397168 1.0138006 0.9506221 0.81179345 0.9666925 0.82137895
0.8190754 1.0337481 1.0341458 1.0535076 0.9345477 1.0407299 0.96040857 1.0078549
1.0063245 1.0219406 0.9987692 0.86996776 1.0278064 1.1441804 1.0480784 1.0293372
1.0136815 0.90485543 0.8567054 0.94629383 0.8867928 0.88829416 1.0030177 1.0859973
1.1097912 1.0837113 1.0374209 0.8805983 0.9412533 0.9876563 1.2278752 1.0121634
00000000: ca5d 8b3f 9e07 893f 6f40 8e3f b37a 473f
00000010: 2928 8d3f 0084 833f 9b08 8f3f ac3e 6c3f
00000020: 92e3 943f 4f39 823f f220 733f 17d9 6d3f
00000030: 8a15 7d3f c814 603f f707 6a3f 1314 593f
00000040: 05b1 853f 83d1 8f3f bcca 5f3f 529e 853f
00000050: ce03 713f e8de 563f c7dc 833f fc3c 813f
00000060: 7ca1 6c3f e301 463f ba3e 773f 0119 823f
00000070: 2d4d 5b3f c55b 7f3f a489 713f 820c 893f
00000080: f791 723f dd0b 783f 4a05 6c3f 2658 653f
00000090: 1ea6 853f 9426 853f 4d29 813f 12ab 793f
000000a0: 4688 743f 6153 793f 77f3 8e3f c080 883f
000000b0: edbc 843f 920f 7e3f 4833 823f ec33 6b3f
000000c0: 3603 833f 1641 723f 9d8e 6d3f 31d4 8e3f
000000d0: 96c5 7b3f 767c 733f 247f 893f 71e7 683f
000000e0: e237 7f3f ead8 843f 48ed 7a3f a56b 4a3f
000000f0: a8a6 943f be1c 7e3f 5759 683f 3974 8a3f
00000100: 8d0c 783f e7bc 653f 0ad7 8b3f 9c90 753f
00000110: b4c3 673f a0e8 743f 4283 683f 673c 833f
00000120: 1ab0 833f 9ff6 733f 2f55 773f e17a 913f
00000130: c75f 793f 9e2a 903f 95bf 983f acad 8a3f
00000140: 2cf6 6e3f 860f 613f 8e89 6a3f b104 7e3f
00000150: a747 883f ec00 773f 2a6b 8a3f e69c 7b3f
00000160: e304 6a3f e1a9 783f aef7 563f 38c4 813f
00000170: f85b 733f b2d1 4f3f 2979 773f e445 523f
00000180: edae 513f dc51 843f e45e 843f 56d9 863f
00000190: 853e 6f3f a336 853f 56dd 753f 6401 813f
000001a0: 3ecf 803f f3ce 823f 57af 7f3f 35b6 5e3f
000001b0: 298f 833f 8174 923f 6f27 863f 52c1 833f
000001c0: 51c0 813f 9ba4 673f 0c51 5b3f 5040 723f
000001d0: da04 633f 3f67 633f e262 803f f601 8b3f
000001e0: a30d 8e3f 0db7 8a3f 35ca 843f e46e 613f
000001f0: faf5 703f 0bd7 7c3f 042b 9d3f 928e 813f

fc1_bn.bias f4 [128]
-0.09182257 -0.17386891 -0.10366079 -0.23062824 -0.0027668828 0.09059388 0.015748357 0.025984516
-0.24433817 -0.088004194 -0.121506914 -0.14196002 0.080947146 -0.22024122 -0.17600012 0.011147155
-0.15093505 0.16006081 0.07152558 -0.10362329 -0.34386796 -0.054923087 0.094303295 -0.10648388
-0.03052065 -0.2276026 0.11501575 0.043144334 -0.25983962 -0.04936347 -0.18215474 -0.026703918
0.15845302 0.0011374308 -0.19750433 -0.18260421 0.043241717 0.11545565 -0.06776388 -0.30067322
0.008883358 0.1381279 -0.18552871 -0.14705716 0.020022394 -0.36168137 -0.04725933 -0.039990816
-0.19669086 -0.17357899 -0.29670647 0.04960898 0.26406905 0.18450873 0.094174884 -0.31734645
0.006810523 0.007543758 -0.1982067 -0.1542718 -0.008200902 -0.29251626 -0.16293988 0.03191532
-0.087327115 0.025897233 0.16695406 0.058978163 0.12690318 -0.26321274 -0.21729209 -0.15924588
-0.10844128 0.18029846 -0.30237815 0.2410214 0.02187947 -0.038895775 -0.29330838 -0.21475852
-0.13113478 -0.1289256 0.005508668 -0.14138635 0.026612598 0.14709333 -0.10541552 0.11987319
0.15578528 -0.29810452 -0.23095322 0.03327568 0.06349983 0.008554698 -0.18429656 -0.30051106
-0.26797876 -0.14657734 0.10333703 -0.035025574 0.048822943 -0.21200298 -0.19565013 -0.10676504
0.07847597 -0.07766377 -0.20004816 -0.27417588 -0.14551342 -0.45623398 0.053460896 0.17013839
0.18469767 -0.20649971 -0.35968223 0.019383296 -0.25383842 -0.17674394 -0.4326668 -0.24926944
-0.16640338 -0.16646062 -0.02508833 -0.18494678 -0.2561443 0.101642855 -0.25043163 0.1129183
00000000: 790d bcbd b10a 32be 1c4c d4bd cf29 6cbe
00000010: 9754 35bb 4989 b93d b302 813c 7bdd d43c
00000020: c933 7abe 8b3b b4bd 9ed8 f8bd f85d 11be
00000030: 9ec7 a53d ea86 61be 6039 34be 8fa2 363c
00000040: b88e 1abe fbe6 233e 017c 923d 7338 d4bd
00000050: 760f b0be 08f7 60bd 1622 c13d 3814 dabd
00000060: 7106 fabc a810 69be 618d eb3d 1db8 303d
00000070: b309 85be 5a31 4abd c686 3abe 2dc2 dabc
00000080: 8241 223e d815 953a 933e 4abe 99fc 3abe
00000090: 3a1e 313d 0374 ec3d cac7 8abd d7f1 99be
000000a0: 818b 113c 6671 0d3e 3dfb 3dbe 2796 16be
000000b0: 0106 a43c 4d2e b9be 0093 41bd 69cd 23bd
000000c0: 5469 49be b1be 31be e9e9 97be c932 4b3d
000000d0: 0f34 873e dbef 3c3e c3de c03d 3c7b a2be
000000e0: cf2a df3b a131 f73b b2f6 4abe 6df9 1dbe
000000f0: 135d 06bc b1c4 95be b6d9 26be a3b9 023d
00000100: 8fd8 b2bd 6f26 d43c 01f6 2a3e 1693 713d
00000110: e8f2 013e d2c3 86be d181 5ebe 5a11 23be
00000120: 7616 debd 29a0 383e 4fd1 9abe 50ce 763e
00000130: 933c b33c 2d51 1fbd 842c 96be a8e9 5bbe
00000140: 3248 06be 1305 04be 0e82 b43b 95c7 10be
00000150: aa02 da3c a29f 163e 18e4 d7bd 1380 f53d
00000160: 2d86 1f3e 28a1 98be 007f 6cbe 144c 083d
00000170: 330c 823d 0129 0c3c 3db8 3cbe 96dc 99be
00000180: 8334 89be 5f18 16be 5da2 d33d fa76 0fbd
00000190: 91fa 473d 4f17 59be 8258 48be a1a7 dabd
000001a0: 02b8 a03d 2f0e 9fbd 6dd9 4cbe c860 8cbe
000001b0: 7801 15be 8097 e9be d0f9 5a3d c238 2e3e
000001c0: 6321 3d3e a974 53be 4528 b8be b8c9 9e3c
000001d0: 1cf7 81be 5dfc 34be 8186 ddbe 7d40 7fbe
000001e0: a665 2abe a774 2abe 0b86 cdbc b062 3dbe
000001f0: 5825 83be 212a d03d 9338 80be b641 e73d

fc1_bn.running_mean f4 [128]
-2442.2837 -13000.737 59241.69 95469.8 20081.44 -42124.957 38310.824 -52004.88
-49571.152 -2077.7554 -37453.875 -6056.035 -48433.816 3459.4558 80420.12 1541.9077
41697.258 17548.346 -60057.32 19611.719 9445.558 43835.355 -32393.092 109694.805
-52361.03 46114.734 23594.008 -24681.482 -20494.502 -34435.54 15202.954 1935.0881
102189.555 30235.281 21852.133 -221.12663 82741.95 -39270.324 43604.61 -25113.908
12912.11 -48009.38 -57312.047 13914.911 -38185.598 39066.402 6015.006 31443.555
-27111.451 19586.451 11203.118 17354.39 10552.773 8487.246 -22034.426 -70643.125
-7447.763 5829.6543 81446.54 50165.99 -33045.934 -78814.22 -13203.405 9060.359
-69323.08 -80439.98 -57128.695 22695.29 22212.977 28533.473 -57836.645 2720.762
-18.292465 4624.0728 -56370.277 17563.422 9159.13 -8971.088 -44002.62 110908.22
-24771.889 -8545.449 58255.008 9246.005 -37161.812 -52524.555 -44641.84 -48844.39
40100.73 -42643.62 14533.682 26172.172 -17871.77 -124647.35 -38074.58 -95240.58
-75827.43 -58700.773 2283.6172 91690.695 -6413.8257 -53035.285 39491.504 25473.158
-2699.1672 53896.375 50537.844 -71829.2 -20550.254 -51976.574 -31427.97 13886.243
-46608.766 84905.77 133023.78 -84057.75 28359.658 -108354.58 -35119.793 2833.291
41343.965 76287.664 11692.237 -34412.832 84748.92 61471.35 -16993.758 -32324.037
00000000: 8aa4 18c5 f322 4bc6 b169 6747 e676 ba47
00000010: e1e2 9c46 f58c 24c7 d3a6 1547 e124 4bc7
00000020: 27a3 41c7 16dc 01c5 e04d 12c7 4840 bdc5
00000030: d131 3dc7 4b37 5845 0f12 9d47 0cbd c044
00000040: 42e1 2247 b118 8946 5299 6ac7 7037 9946
00000050: 3b96 1346 5b3b 2b47 2f12 fdc6 673f d647
00000060: 0889 4cc7 bc22 3447 0454 b846 f7d2 c0c6
00000070: 011d a0c6 8a83 06c7 d18b 6d46 d2e2 f144
00000080: c796 c747 9036 ec46 44b8 aa46 6b20 5dc3
00000090: fa9a a147 5366 19c7 9c54 2a47 d133 c4c6
000000a0: 71c0 4946 6189 3bc7 0ce0 5fc7 a56b 5946
000000b0: 9929 15c7 679a 1847 0cf8 bb45 1ca7 f546
000000c0: e7ce d3c6 e704 9946 790c 2f46 c894 8746
000000d0: 18e3 2446 fc9c 0446 da24 acc6 90f9 89c7
000000e0: 1bbe e8c5 3c2d b645 4513 9f47 fdf5 4347
000000f0: ef15 01c7 1cef 99c7 9f4d 4ec6 7091 0d46
00000100: 8a65 87c7 fd1b 9dc7 b228 5fc7 944e b146
00000110: f489 ad46 f2ea de46 a5ec 61c7 310c 2a45
00000120: f856 92c1 9580 9045 4732 5cc7 d836 8946
00000130: 851c 0f46 5a2c 0cc6 9fe2 2bc7 1c9e d847
00000140: c787 c1c6 cc85 05c6 028f 6347 0578 1046
00000150: d029 11c7 8e2c 4dc7 d761 2ec7 64cc 3ec7
00000160: bba4 1c47 9f93 26c7 ba16 6346 5878 cc46
00000170: 8a9f 8bc6 ad73 f3c7 94ba 14c7 4a04 bac7
00000180: b719 94c7 c64c 65c7 e0b9 0e45 5915 b347
00000190: 9b6e c8c5 492b 4fc7 8143 1a47 5102 c746
000001a0: adb2 28c5 6088 5247 d869 4547 9a4a 8cc7
000001b0: 828c a0c6 9308 4bc7 f187 f5c6 f9f8 5846
000001c0: c410 36c7 e3d4 a547 f2e7 0148 e02c a4c7
000001d0: 518f dd46 4aa1 d3c7 cb2f 09c7 a814 3145
000001e0: f77f 2147 d5ff 9447 f3b0 3646 d56c 06c7
000001f0: 7686 a547 5a1f 7047 84c3 84c6 1388 fcc6

fc1_bn.running_var f4 [128]
1.7975931e+09 5.3169018e+08 8.428406e+08 5.846928e+09 2.0030374e+08 1.2396899e+09 3.9656362e+08 1.793691e+09
4.2272438e+08 3.9195245e+08 9.215262e+08 2.704606e+08 1.3037408e+09 1.3449215e+09 1.3110769e+09 8.556234e+08
5.5328557e+08 1.1878342e+09 8.561795e+08 1.6652051e+08 1.5035675e+09 6.2248166e+08 1.0694235e+08 2.5016827e+09
1.3103459e+09 4.1051766e+08 1.8402711e+09 4.2939955e+08 7.293038e+08 9.2139776e+08 6.7059206e+08 1.6754907e+08
4.7269053e+09 1.5898473e+09 5.7538874e+08 3.0813152e+08 1.5704828e+09 1.06468243e+09 4.919779e+08 3.2485002e+08
3.4525133e+08 1.2164275e+09 7.285622e+08 8.9472456e+07 1.760628e+09 8.007045e+08 2.3419099e+08 3.280489e+08
7.299869e+08 3.5633542e+08 5.106156e+08 1.133986e+09 4.1900653e+08 2.933849e+08 4.3849706e+08 1.615885e+09
3.1830026e+08 1.5140815e+09 1.39299e+09 5.5628986e+08 1.2505498e+08 2.4344148e+09 5.5034874e+08 1.7501514e+08
1.8446899e+09 3.6506604e+09 1.6014853e+09 2.5217088e+08 1.8802103e+09 5.162153e+08 2.4070953e+09 8.031262e+08
2.1219702e+08 4.7514253e+08 1.2092302e+09 5.8616186e+08 9.017932e+07 1.23813384e+08 2.928114e+08 2.572064e+09
2.2163405e+08 2.5079043e+08 2.480355e+09 1.1588317e+09 1.2260835e+09 1.3388713e+09 2.1096411e+08 6.8563066e+08
2.2176049e+09 1.3695185e+09 5.821456e+08 1.547834e+09 6.432575e+08 7.1923343e+09 4.7696243e+08 2.6992392e+09
1.9404826e+09 1.2840978e+09 7.800071e+08 2.2949192e+09 1.8202769e+09 1.1276456e+09 3.8051738e+08 1.1033167e+09
6.2541357e+08 6.8996486e+08 5.3985024e+08 1.5851985e+09 1.9047461e+09 5.228547e+08 1.1147284e+09 1.1918298e+09
1.62927e+09 1.5583247e+09 7.4705137e+09 3.8452623e+09 5.402237e+08 5.2826317e+09 4.5991456e+08 1.3835037e+09
3.3989373e+08 1.0848247e+09 9.7154426e+08 1.6772937e+09 2.030052e+09 1.4315683e+09 4.191028e+08 1.314504e+09
00000000: 304a d64e 9687 fd4d e8f2 484e 8540 ae4f
00000010: 4806 3f4d 55c8 934e a518 bd4d 1bd3 d54e
00000020: 1992 c94d c2e5 ba4d 7fb5 5b4e 36f7 804d
00000030: 036b 9b4e bf53 a04e e44a 9c4e 1cff 4b4e
00000040: dfe9 034e d399 8d4e 0d21 4c4e 6cce 1e4d
00000050: 3d3d b34e 4469 144e f2f9 cb4c a61c 154f
00000060: 9534 9c4e 05c0 c34d 9e60 db4e f0c0 cc4d
00000070: 2ce1 2d4e a8ad 5b4e b1e1 1f4e 89c9 1f4d
00000080: 6ddf 8c4f 4a86 bd4e f12e 094e b6ed 924d
00000090: 5537 bb4e 0fd7 7d4e e597 ea4d 8be6 9a4d
000000a0: f0a0 a44d 6c02 914e e8b3 2d4e b9a7 aa4c
000000b0: 1ae2 d14e 20e7 3e4e 8957 5f4d 086d 9c4d
000000c0: dd0a 2e4e fae9 a94d 027b f34d 822e 874e
000000d0: 42cc c74d 96e5 8b4d 7917 d14d e6a0 c04e
000000e0: 03c7 974d 1a7e b44e ae0e a64e 3da1 044e
000000f0: 0086 ee4c 391a 114f 9f36 034e 4ee8 264d
00000100: 78e7 db4e a898 594f 74e9 be4e 287d 704d
00000110: 7723 e04e 9026 f64d 5c79 0f4f ef7a 3f4e
00000120: ea5d 4a4d cc90 e24d c726 904e 7bc0 0b4e
00000130: df00 ac4c c127 ec4c 949f 8b4d 954e 194f
00000140: e05d 534d 222c 6f4d 37d7 134f bd24 8a4e
00000150: 1929 924e 1c9b 9f4e e930 494d 9377 234e
00000160: f72d 044f 6342 a34e 59cb 0a4e 2584 b84e
00000170: 525d 194e 2859 d64f f46e e34d 1fe3 204f
00000180: d452 e74e 8e13 994e dbf7 394e b0c9 084f
00000190: 71fe d84e 036d 864e e071 b54d 8e86 834e
000001a0: 371c 154e 1d80 244e d8b5 004e 6bf8 bc4e
000001b0: 3d10 e34e 0951 f94d d0e2 844e c213 8e4e
000001c0: 6039 c24e 4cc4 b94e 7fa3 de4f 0c32 654f
000001d0: a3cc 004e 486f 9d4f ea4d db4d 2fed a44e
000001e0: ef12 a24d 3952 814e 5ba2 674e f1f2 c74e
000001f0: 4500 f24e ffa7 aa4e 02d8 c74d 7ab3 9c4e

fc2.weight f4 [64, 128]
0.1687989 0.15214905 -0.017153926 -0.07490129 0.17166388 -0.083542064 -0.02021869 0.010056945
-0.0719534 0.06453549 0.023395434 0.052201103 -0.23036201 0.089372605 0.15204579 -0.101051554
0.02089851 -0.012306941 -0.04085361 0.1958549 0.0701032 -0.033836104 -0.099135384 0.015637215
0.09943548 0.09830823 0.023832534 -0.0064043 0.16012633 -0.13677925 0.08795756 -0.044960026
0.0794349 0.05149007 0.19154397 0.04574679 0.14023028 -0.27573323 0.07282207 -0.0708446
-0.07736815 -0.34175313 -0.0007907752 -0.18772213 0.08256282 -0.0184096 -0.12503405 -0.0075761834
-0.17179509 0.05900067 -0.12041048 0.091758564 -0.05108505 -0.03275992 -0.08311931 -0.05493373
-0.009430795 -0.03223119 0.12248091 -0.05364657 -0.020130355 -0.23275825 0.02472551 0.051140323
-0.07202489 -0.1886245 -0.23102622 -0.111955196 -0.030338569 0.10207563 -0.002870404 0.19563115
0.023610318 0.0038248948 -0.15461025 0.06391744 -0.022277616 -0.13153522 0.012624977 0.12101766
-0.13149622 0.026727092 0.15669727 0.115351975 0.044785634 -0.15214187 0.15237793 -0.14305136
-0.04203027 -0.14488168 -0.019512985 -0.049842473 -0.28392956 -0.100052916 -0.08749937 -0.024045741
0.058429647 0.14468265 0.072770074 0.024418509 0.0016324726 -0.14959128 0.06978687 0.09656702
-0.012848123 0.12243258 0.19409454 0.018166222 0.0733335 0.16728188 -0.2182064 -0.102874584
-0.32838485 0.12868713 0.13271521 -0.19446506 0.08790621 -0.043609254 0.103067964 0.08225312
0.10156957 -0.06378988 0.033684537 0.078597695 0.0002183853 -0.15770753 -0.01498931 0.008204477
0.07957067 -0.14069343 0.06809606 0.10948264 0.051489316 -0.04743629 -0.25912553 0.047908198
-0.21438178 0.0499061 0.04346467 0.0046052425 -0.0060808053 0.11212393 0.041650042 0.03456611
-0.008863352 0.07972268 0.018654699 -0.12307354 -0.10431204 -0.008410836 -0.057143286 -0.021273103
0.094041154 0.030184718 -0.039896537 -0.08177854 0.112339124 -0.08910008 -0.0006905933 0.07834002
0.03755939 0.1410106 -0.21254405 0.086829394 -0.12016024 0.021083962 0.076569915 0.018463697
-0.069310844 -0.027768467 -0.296114 0.0115922205 0.08750159 -0.42987144 0.12628336 0.15675835
0.08452035 0.14512202 0.08384829 -0.0127156405 -0.1887151 -0.13737386 -0.16055283 -0.051483184
0.1597927 0.04037955 -0.016707001 0.025827099 -0.15591325 0.059439886 -0.018770399 0.06815357
0.05426967 -0.03200332 -0.059124243 -0.057768222 -0.100929156 0.06713952 -0.007973984 0.050359484
-0.20793517 -0.031768862 -0.03879237 -0.033183224 0.06822205 0.0063752956 -0.17414251 0.022049064
0.018044954 -0.045924213 0.016008848 0.03981608 0.0057835854 -0.024136782 -0.1912872 0.021545032
-0.115434244 0.03408769 -0.029696725 -0.0072996975 0.06957819 0.042505596 0.09259602 -0.14859565
-0.26923418 -0.0726952 0.054927945 -0.07189944 0.021869648 -0.033915132 0.061135504 0.04551698
0.17381439 0.06664722 -0.040368956 0.044882163 -0.20127408 -0.11935277 -0.022010714 -0.033409435
-0.024403596 0.053181455 0.12958913 -0.10712144 -0.25462228 -0.00082231796 -0.06923658 -0.11192436
-0.14757997 -0.060331583 0.0661715 -0.068663225 -0.07952322 -0.0564938 -0.46816975 0.21166892
00000000: 9ed9 2c3e f6cc 1b3e 6486 8cbc d965 99bd
00000010: a8c8 2f3e 1a18 abbd aba1 a5bc e2c5 243c
00000020: 4e5c 93bd 2f2b 843d c8a7 bf3c d3d0 553d
00000030: 05e4 6bbe fc08 b73d e4b1 1b3e 1ef4 cebd
00000040: 5a33 ab3c 0da3 49bc 1d56 27bd 308e 483e
00000050: 4492 8f3d ba97 0abd 7e07 cbbd 9e19 803c
00000060: d4a4 cb3d d355 c93d 723c c33c 2adb d1bb
00000070: 28f8 233e dc0f 0cbe 1823 b43d 0128 38bd
00000080: c4ae a23d 40e7 523d 1a24 443e fc60 3b3d
00000090: 8798 0f3e e82c 8dbe bd23 953d f916 91bd
000000a0: 3173 9ebd 44fa aebe 064c 4fba 3b3a 40be
000000b0: b216 a93d bbcf 96bc ed08 00be a241 f8bb
000000c0: 0deb 2fbe b0aa 713d c599 f6bd eaeb bb3d
000000d0: 8f3e 51bd 442f 06bd 753a aabd 3102 61bd
000000e0: 9f83 1abc da04 04bd 45d7 fa3d 81bc 5bbd
000000f0: 6ae8 a4bc 2e58 6ebe 278d ca3c 8478 513d
00000100: c981 93bd c826 41be 2392 6cbe c448 e5bd
00000110: 9788 f8bc 070d d13d 631d 3cbb 8853 483e
00000120: 6d6a c13c 16ab 7a3b 2652 1ebe 26e7 823d
00000130: 8c7f b6bc 2bb1 06be fed8 4e3c 1bd8 f73d
00000140: f2a6 06be c6f2 da3c 4075 203e a83d ec3d
00000150: 2471 373d 14cb 1bbe f608 1c3e 0e7c 12be
00000160: ef27 2cbd dd5b 14be b2d9 9fbc 9f27 4cbd
00000170: 375f 91be 8be8 ccbd df32 b3bd 93fb c4bc
00000180: ed53 6f3d b027 143e 7a08 953d 5309 c83c
00000190: b1f8 d53a 752e 19be 6bec 8e3d eec4 c53d
000001a0: ef80 52bc efbd fa3d b8c0 463e 54d1 943c
000001b0: e02f 963d f14b 2b3e 8071 5fbe e9af d2bd
000001c0: 0f22 a8be 8fc6 033e 7fe6 073e d921 47be
000001d0: 2c08 b43d 9e9f 32bd 4c15 d33d 5374 a83d
000001e0: b503 d03d 45a4 82bd ccf8 093d d4f7 a03d
000001f0: 5cfe 6439 157e 21be b995 75bc 126c 063c
00000200: f3f5 a23d f011 10be f275 8b3d 6f38 e03d
00000210: 76e6 523d 8e4c 42bd 1aac 84be 633b 443d
00000220: e686 5bbe 576a 4c3d 0308 323d 93e7 963b
00000230: 7e41 c7bb 3ba1 e53d 3c99 2a3d 3195 0d3d
00000240: 9837 11bc a545 a33d bdd1 983c fb0d fcbd
00000250: 8da1 d5bd 9acd 09bc 140f 6abd ee44 aebc
00000260: a698 c03d f145 f73c 8d6a 23bd 827b a7bd
00000270: 0e12 e63d 1a7a b6bd ef08 35ba bb70 a03d
00000280: e0d7 193d 1565 103e 26a5 59be 9cd3 b13d
00000290: 9216 f6bd 46b8 ac3c b0d0 9c3d 2e41 973c
000002a0: d8f2 8dbd b27a e3bc 419c 97be 4ced 3d3c
000002b0: 0934 b33d 1c18 dcbe 6d50 013e 4385 203e
000002c0: 0119 ad3d de9a 143e a7b8 ab3d 4355 50bc
000002d0: 883e 41be bcab 0cbe f667 24be 08e0 52bd
000002e0: b3a0 233e 0765 253d 1fdd 88bc 5a93 d33c
000002f0: b9a7 1fbe 3d77 733d 61c4 99bc 1994 8b3d
00000300: e049 5e3d ea15 03bd 432c 72bd 5f9e 6cbd
00000310: f2b3 cebd 7280 893d 50a5 02bc bf45 4e3d
00000320: f5ec 54be 1120 02bd c0e4 1ebd 22eb 07bd
00000330: 01b8 8b3d dbe7 d03b 6a52 32be 3da0 b43c
00000340: 03d3 933c 071b 3cbd fd24 833c 3016 233d
00000350: 3b84 bd3b 80ba c5bc cbe0 43be 357f b03c
00000360: ca68 ecbd 899f 0b3d 8c46 f3bc 4d32 efbb
00000370: 037f 8e3d 591a 2e3d fba2 bd3d 7529 18be
00000380: 10d9 89be 39e1 94bd 20fc 603d 0340 93bd
00000390: fa27 b33c 98ea 0abd 3969 7a3d 0370 3a3d
000003a0: 66fc 313e 567e 883d eb59 25bd 5cd6 373d
000003b0: cb1a 4ebe 3a6f f4bd d04f b4bc 55d8 08bd
000003c0: 0dea c7bc ccd4 593d 03b3 043e 7c62 dbbd
000003d0: da5d 82be d390 57ba e8cb 8dbd 9938 e5bd
000003e0: 341f 17be 401e 77bd ec84 873d 4e9f 8cbd
000003f0: 12dd a2bd 0b66 67bd f2b3 efbe bdbf 583e

fc2.bias f4 [64]
0.017265163 -0.035672348 0.06429934 0.06879546 -0.003804692 0.015846867 -0.0767438 0.0074705905
0.055883706 0.08695254 -0.0033026251 0.027045079 -0.03890764 -0.028357564 0.06400309 0.05801039
0.04902292 -0.059270673 -0.04254078 0.018745387 -0.080677316 -0.09387232 0.0023020213 -0.04736133
-0.067188054 -0.054527164 0.033002216 -0.072646 -0.04421026 0.047041804 0.08521213 0.0039048158
-0.018095605 -0.026031781 -0.053669404 0.02392275 -0.05793558 0.08188672 -0.08294813 -0.06926578
-0.07320968 0.06571771 -0.052417863 0.020797336 0.06349274 0.06841274 -0.037273996 -0.06137453
0.040426437 -0.01980858 0.0037381724 0.012589799 -0.00758709 0.008473605 -0.070398755 -0.036197964
-0.08493841 0.076794855 -0.05021133 0.06732273 0.027804052 0.055558544 0.062466018 -0.04501245
00000000: ac6f 8d3c 2b1d 12bd 5faf 833d a2e4 8c3d
00000010: 2458 79bb 4ad1 813c da2b 9dbd dbcb f43b
00000020: 50e6 643d 2c14 b23d db70 58bb a48d dd3c
00000030: 9e5d 1fbd 1f4e e8bc 0d14 833d 4d9c 6d3d
00000040: 42cc 483d cec5 72bd 3e3f 2ebd ed8f 993c
00000050: 263a a5bd 2240 c0bd 82dd 163b f4fd 41bd
00000060: e499 89bd e057 5fbd 552d 073d 6dc7 94bd
00000070: d115 35bd e8ae 403d b283 ae3d f0e7 7f3b
00000080: 3c3d 94bc 9a40 d5bc 73d4 5bbd a5f9 c33c
00000090: dc4d 6dbd 3ab4 a73d b6e0 a9bd 38db 8dbd
000000a0: f5ee 95bd 0297 863d 1db4 56bd 2d5f aa3c
000000b0: 7b08 823d fb1b 8c3d 9eac 18bd dc63 7bbd
000000c0: 3196 253d 9a45 a2bc 20fc 743b 7245 4e3c
000000d0: 209d f8bb e0d4 0a3c 392d 90bd 5144 14bd
000000e0: 30f4 adbd 9f46 9d3d 65aa 4dbd 80e0 893d
000000f0: 53c5 e33c 5b91 633d 5edc 7f3d fa5e 38bd

fc2_bn.weight f4 [64]
1.0986302 1.1366627 0.9452621 1.0324057 0.99342716 1.0412828 1.0856005 0.95166534
0.98306996 1.0148959 1.1287693 1.1144261 0.9778285 1.0558827 1.1031046 1.0343843
1.0673338 0.99351114 1.2368587 0.9448277 1.0332618 1.0903083 1.0243412 1.0165198
0.97887355 1.0263171 0.96472114 0.9892135 0.97138256 1.1412791 1.0105839 1.0034889
1.0299116 1.0106899 1.0375724 0.93083936 1.0313216 1.0480912 1.0968773 1.0607291
0.976491 0.9950625 0.9339695 1.1190722 0.76240057 0.9179601 1.0615995 0.98657924
1.0873449 0.9958526 1.0489895 0.7956603 0.9560372 1.0026754 1.0214568 1.0713192
0.9309354 1.1154631 0.9802999 1.0767627 1.0034373 1.0273721 1.01671 1.0767318
00000000: ea9f 8c3f 2a7e 913f b2fc 713f df25 843f
00000010: 3e51 7e3f c148 853f f5f4 8a3f 57a0 733f
00000020: 79aa 7b3f 1ce8 813f 837b 903f 84a5 8e3f
00000030: f852 7a3f 2a27 873f 8832 8d3f b466 843f
00000040: 659e 883f bf56 7e3f 6351 9e3f 3ae0 713f
00000050: ec41 843f 398f 8b3f 9d1d 833f 521d 823f
00000060: 7597 7a3f 5c5e 833f f7f7 763f 193d 7d3f
00000070: 87ac 783f 6f15 923f d05a 813f 5372 803f
00000080: 25d4 833f 495e 813f 2ccf 843f 7d4b 6e3f
00000090: 5902 843f da27 863f 7a66 8c3f f9c5 873f
000000a0: 50fb 793f 6abc 7e3f a018 6f3f c23d 8f3f
000000b0: af2c 433f 6fff 6a3f 7ee2 873f 7590 7c3f
000000c0: 1e2e 8b3f 32f0 7e3f 4a45 863f 65b0 4b3f
000000d0: dbbe 743f ab57 803f 19bf 823f fd20 893f
000000e0: c851 6e3f 7fc7 8e3f eff4 7a3f 5cd3 893f
000000f0: a270 803f ee80 833f 8e23 823f 59d2 893f

fc2_bn.bias f4 [64]
0.042846896 0.05445657 -0.018442491 0.08397584 -0.02241848 0.05118199 0.012179358 -0.020669293
-0.015918676 0.025164986 0.14563644 -0.009017085 -0.050190356 0.019909238 0.08274278 -0.11959973
0.18004936 0.012428235 0.011148484 -0.0680859 -0.0075770784 -0.019676471 -0.05303135 0.03789025
0.100383736 0.11542591 -0.016239747 -0.12269326 0.028372396 0.051022206 -0.199607 0.011566428
0.06320993 -0.015313836 -0.015899759 0.18448663 0.04244711 0.059979856 0.05931625 -0.03226612
0.037960008 0.022827622 -0.2870113 0.026314264 -0.18458639 -0.0721528 -0.038324695 -0.029553913
0.19566321 -0.021986179 0.051373456 -0.24364413 -0.23476788 -0.07054262 0.005535923 0.1296758
-0.11527932 0.1343843 -0.32439026 0.078434564 -0.033201914 0.04656233 0.010474878 0.0041587777
00000000: 3a80 2f3d da0d 5f3d b514 97bc 86fb ab3d
00000010: f6a6 b7bc 35a4 513d ee8b 473c a652 a9bc
00000020: e267 82bc cd26 ce3c b821 153e 65bc 13bc
00000030: 6794 4dbd b318 a33c 0c75 a93d b4f0 f4bd
00000040: dc5e 383e cc9f 4b3c 22a8 363c 9f70 8bbd
00000050: 2449 f8bb 8d30 a1bc 6737 59bd cf32 1b3d
00000060: fd95 cd3d 6b64 ec3d 3809 85bc 9b46 fbbd
00000070: 3a6d e83c a9fc 503d c765 4cbe 1d81 3d3c
00000080: 3574 813d e2e6 7abc 3640 82bc 10ea 3c3e
00000090: 05dd 2d3d 70ad 753d 99f5 723d 7b29 04bd
000000a0: f47b 1b3d fe00 bb3c 25f3 92be 0391 d73c
000000b0: 3704 3dbe d9c4 93bd 5bfa 1cbd 0c1b f2bc
000000c0: f05b 483e 5c1c b4bc f96c 523d d97d 79be
000000d0: fe66 70be a678 90bd b066 b53b bcc9 043e
000000e0: 9017 ecbd 0a9c 093e 7b16 a6be 4da2 a03d
000000f0: bbfe 07bd 24b8 3e3d d39e 2b3c 5b46 883b

fc2_bn.running_mean f4 [64]
-0.6908188 -1.2594179 -0.14413013 0.89088196 -0.73493624 -1.3112038 -0.5701899 -0.44443262
-2.1384158 -2.1011267 -0.4211739 -1.2916471 -0.10929331 -0.7093314 -0.8430616 -0.8538034
0.7842619 -2.5051324 -0.92162776 0.1803417 -0.7089658 -0.996919 -0.5461349 -0.92262125
-0.6892071 -1.4547174 -0.9921454 1.2002779 -1.5039421 -0.7681555 2.8529947 -0.554862
-1.2489288 -1.0964477 -1.4611646 0.32986718 -0.4881205 -0.94796973 -1.5977901 -0.54848903
-0.21338853 -0.30635232 2.5867434 -0.63610494 -0.963279 1.5962012 -0.62582874 -0.5446552
-1.2135911 -1.40713 0.0844916 -0.64675134 2.3258362 0.11142549 -1.3864555 -1.8434446
0.21461678 0.3249829 2.84168 -0.2498059 -0.45343527 -1.3637793 -0.75092113 -0.49710602
00000000: 80d9 30bf 9b34 a1bf d996 13be d710 643f
00000010: c824 3cbf 87d5 a7bf f7f7 11bf ac8c e3be
00000020: cedb 08c0 dc78 06c0 1ba4 d7be b154 a5bf
00000030: 2cd5 dfbd be96 35bf e3d2 57bf dc92 5abf
00000040: 63c5 483f 1754 20c0 ccef 6bbf 7fab 383e
00000050: c87e 35bf 1536 7fbf 7fcf 0bbf e830 6cbf
00000060: e06f 30bf 2e34 babf 3efd 7dbf b5a2 993f
00000070: 2d81 c0bf d7a5 44bf 7797 3640 700b 0ebf
00000080: e6dc 9fbf 6658 8cbf 7107 bbbf 5ae4 a83e
00000090: eeea f9be 25ae 72bf 6384 ccbf c769 0cbf
000000a0: 8682 5abe 36da 9cbe 348d 2540 c6d7 22bf
000000b0: 7499 76bf 5250 cc3f 5036 20bf 866e 0bbf
000000c0: f456 9bbf d61c b4bf ef09 ad3d 7f91 25bf
000000d0: 80da 1440 0c33 e43d 6077 b1bf fef5 ebbf
000000e0: 80c4 5b3e 2964 a63e 16de 3540 1ecd 7fbe
000000f0: ab28 e8be 5290 aebf 5e3c 40bf ae84 febe

fc2_bn.running_var f4 [64]
3.6724358 2.7387054 2.7523978 2.8821232 0.93313444 3.2847712 2.012209 0.8070639
5.637654 5.4818525 2.813927 2.0412498 2.529367 4.046286 1.1169591 0.9735742
1.6126846 5.8850017 1.3715148 1.158635 1.6871936 1.8373544 4.151652 1.772285
1.1812248 4.9588013 0.7501396 1.3865983 4.3886075 1.1223713 2.7872806 2.6942255
5.215315 1.5989401 1.051569 1.2473016 1.349853 4.619009 1.4933851 2.4230254
0.90787315 3.4201055 2.3485844 3.8465931 2.6217566 1.7949315 4.9290657 0.83708566
1.61012 1.2858968 2.4017916 1.8507257 2.4161668 2.759795 2.7125387 5.85743
2.2201283 4.4247637 2.9555693 1.8036877 2.030608 0.9843627 1.6591872 3.960811
00000000: 3009 6b40 f346 2f40 4927 3040 b574 3840
00000010: e6e1 6e3f b139 5240 08c8 0040 bd9b 4e3f
00000020: a967 b440 566b af40 6117 3440 d6a3 0240
00000030: 26e1 2140 2d7b 8140 84f8 8e3f 293c 793f
00000040: 736c ce3f ef51 bc40 cc8d af3f 274e 943f
00000050: f6f5 d73f 6e2e eb3f 55da 8440 3cda e23f
00000060: 6032 973f 80ae 9e40 2609 403f 0e7c b13f
00000070: 796f 8c40 dda9 8f3f ce62 3240 316e 2c40
00000080: dce3 a640 12aa cc3f d099 863f 94a7 9f3f
00000090: fcc7 ac3f ecce 9340 3e27 bf3f d912 1b40
000000a0: 606a 683f 02e3 5a40 354f 1640 952e 7640
000000b0: dcca 2740 51c0 e53f e8ba 9d40 3f4b 563f
000000c0: 6a18 ce3f 4498 a43f f4b6 1940 94e4 ec3f
000000d0: 7aa2 1a40 7ba0 3040 3c9a 2d40 1170 bb40
000000e0: 9516 0e40 aa97 8d40 0c28 3d40 3ddf e63f
000000f0: 7bf5 0140 32ff 7b3f 3f60 d43f ed7d 7d40

fc3.weight f4 [1, 64]
-0.06821683 -0.11310035 -0.07319429 -0.1089306 -0.11107628 -0.08447445 -0.13057692 -0.044707123
-0.10185089 -0.13395812 -0.1001428 -0.13142675 -0.07530181 -0.12684838 -0.10707465 -0.13277116
-0.08141946 -0.0898089 -0.15868308 -0.04059715 -0.07670929 -0.09485554 -0.08950668 -0.09564757
-0.06806516 -0.041317333 -0.08818175 -0.056717515 -0.035324834 -0.099854626 0.14471728 -0.106811754
-0.08568324 -0.13293993 -0.0992332 -0.04527468 -0.058729503 -0.07737199 -0.12984535 -0.10061715
-0.061307214 -0.09620344 0.122262076 -0.098105475 -0.023831202 -0.07509206 -0.1048878 -0.10082335
-0.07781334 -0.043006137 -0.098921396 0.016195942 0.111458555 -0.12637597 -0.09668705 -0.08260955
-0.042443704 -0.083882205 0.15509246 -0.08442243 -0.08947709 -0.116026774 -0.098236784 -0.077730864
00000000: 44b5 8bbd 28a1 e7bd e3e6 95bd 0217 dfbd
00000010: f67b e3bd f100 adbd f5b5 05be d11e 37bd
00000020: 3397 d0bd 512c 09be ab17 cdbd bc94 06be
00000030: d637 9abd 8be4 01be f449 dbbd 2af5 07be
00000040: 3fbf a6bd bbed b7bd d17d 22be 3249 26bd
00000050: c319 9dbd 9f43 c2bd 474f b7bd e0e2 c3bd
00000060: bf65 8bbd 5d3c 29bd a298 b4bd a050 68bd
00000070: c6b0 10bd 9580 ccbd c430 143e 1fc0 dabd
00000080: b27a afbd 6821 08be c73a cbbd f171 39bd
00000090: 598e 70bd 3575 9ebd 2ef6 04be 5d10 cebd
000000a0: 461d 7bbd 4f06 c5bd 8a64 fa3d 86eb c8bd
000000b0: a739 c3bc dec9 99bd 6acf d6bd 797c cebd
000000c0: 9a5c 9fbd 3427 30bd 4d97 cabd 5aad 843c
000000d0: 6244 e43d b468 01be dc03 c6bd 322f a9bd
000000e0: 73d9 2dbd 6fca abbd 8fd0 1e3e abe5 acbd
000000f0: c43f b7bd 729f edbd 5e30 c9bd 5c31 9fbd
