weigh/3.pt (torch, 78784 bytes, 13 tensors)

fc1.weight f4 [128, 74]
0	0x3d6ec292	0.058291025
1	0xbde4b7c9	-0.11167867
2	0x3eb582e0	0.35451412
3	0xbeaa25e2	-0.33232027
4	0xbea5fdf6	-0.3242032
5	0xbcdfd397	-0.027322574
6	0xbd61798d	-0.05504756
7	0x3ef81b90	0.4845853
8	0xbcee1653	-0.02906338
9	0xbe453571	-0.19258668
10	0x3c20e251	0.009819583
11	0xbe467121	-0.19379093
12	0x3db815ea	0.08988555
13	0xbec2f22d	-0.3807539
14	0xbde6f325	-0.11276845
15	0xbeb348f8	-0.35016608
16	0x3c34213d	0.010994253
17	0xbf034383	-0.5127489
18	0xbed64cf3	-0.41855583
19	0xbd34f828	-0.044181973
20	0xbeea4f59	-0.45763662
21	0x3df52de7	0.11971646
22	0xbe92fb52	-0.28707367
23	0xbe7c25bd	-0.24623771
24	0x3e757c92	0.23973301
25	0xbe32ab04	-0.1744805
26	0xbe50a7d7	-0.20376526
27	0xbe858bd4	-0.26083243
28	0xbd385ac9	-0.045008454
29	0x3c770e46	0.015079087
30	0x3cb1d0e1	0.021706047
31	0xbdf009fd	-0.11720655
32	0xb864114e	-5.4375552e-05
33	0x3f04df49	0.51903206
34	0x3d2813f9	0.041034672
35	0xbd884322	-0.066534296
36	0xbe39b621	-0.18135883
37	0x3eac865c	0.33696258
38	0xbe5caf55	-0.21551259
39	0xbed06b1d	-0.4070672
40	0x3dabe864	0.08393934
41	0xbd044407	-0.03229144
42	0x3e5b6e7e	0.21428868
43	0x3ee3ac1a	0.4446724
44	0xbe52adf2	-0.20574167
45	0x3eda909d	0.42688456
46	0xbed1332d	-0.40859357
47	0x3ea7cbf5	0.32772794
48	0x3d8a7bd2	0.06761898
49	0x3ed373ed	0.41299382
50	0xbdbcf1bc	-0.09225795
51	0xbefec475	-0.4975926
52	0xbef4fac8	-0.4784758
53	0xbc90552c	-0.017618738
54	0xbe9aaf58	-0.30211902
55	0x3dc392bf	0.09549474
56	0xbdb0212f	-0.08600079
57	0x3e228f95	0.15875085
58	0xbd816cbe	-0.06319569
59	0xbda2f7a8	-0.07957393
60	0x3d534fbe	0.05158972
61	0xbe20150c	-0.15633029
62	0xbd933c79	-0.071892686
63	0x3daecb6c	0.085348934
64	0xbe463716	-0.19356951
65	0x3c01d148	0.007923432
66	0xbdd13ab6	-0.10216276
67	0x3b23c051	0.0024986456
68	0x3e40f5d9	0.18843783
69	0x3da561ca	0.080752924
70	0x3efd4c75	0.49472395
71	0x3e8596c8	0.260916
72	0x3ea5a48e	0.32352108
73	0x3bfbcdb2	0.007684433
74	0x3f96636f	1.1749095
75	0x3f268138	0.6504092
76	0xbe2b3b2e	-0.16721794
77	0x3ef95112	0.48694664
78	0xbec1edc8	-0.37876725
79	0xbb29a5bc	-0.002588614
80	0xbd521284	-0.05128719
81	0x3e2497f6	0.16073593
82	0x3dc7b482	0.09751226
83	0x3e56403b	0.2092294
84	0x3f777c80	0.96674347
85	0x3f6cdeb3	0.9252731
86	0xbdd74c52	-0.10512604
87	0xbf6b5796	-0.9193052
88	0x3e7e614e	0.24841806
89	0xbf7ace75	-0.9797128
90	0xbd5cf79a	-0.05394707
91	0xbef5261f	-0.47880647
92	0xbf24da2d	-0.6439541
93	0x3d611ffa	0.054962136
94	0xbcc0f93a	-0.02355634
95	0xbdf33eca	-0.118772104
96	0x3ea4c1a7	0.32178995
97	0xbf4298b3	-0.7601425
98	0xbe0d6c35	-0.13810809
99	0xbda3b7d4	-0.07994047
100	0xbf9cb797	-1.2243527
101	0xbfaf1f40	-1.3681412
102	0x3e148607	0.14504252
103	0x3ef34e22	0.47520548
104	0xbf1454bb	-0.5794179
105	0xbed68908	-0.41901422
106	0x3e3d2feb	0.1847531
107	0xbd59c38f	-0.053165015
108	0xbe891d79	-0.26780298
109	0xbde26523	-0.110544465
110	0xbde1bfa8	-0.11022884
111	0x3fd39910	1.6531086
112	0x400f2779	2.2367842
113	0x3e4a0d06	0.1973153
114	0x3e63688e	0.22207853
115	0x3e953d64	0.291484
116	0x3d765e50	0.060148537
117	0xbe83dcb1	-0.25754312
118	0xbf9c24c1	-1.2198716
119	0xbe721fb0	-0.236449
120	0xbf812fa1	-1.009266
121	0xbf8303ea	-1.023557
122	0x3d088abc	0.033335432
123	0xbed45b91	-0.4147611
124	0xbcf89520	-0.030344546
125	0xbe95ab7c	-0.29232395
126	0xbe4dbbd5	-0.20091183
127	0xbd813db8	-0.063106
128	0xbecd9185	-0.40150085
129	0x3e5a36a8	0.21309912
130	0x3d701030	0.058609188
131	0x3e8e7c12	0.27829033
132	0x3d282fa4	0.04106106
133	0xbd3a04b8	-0.045414656
134	0x3dca4a0c	0.098774046
135	0x3d91fbf3	0.071281336
136	0x3ede4534	0.43412173
137	0x3e4cc280	0.19996071
138	0xbd15ccf6	-0.03657242
139	0x3d0152cc	0.031573102
140	0x3e1efc0b	0.15525834
141	0x3d9eea90	0.07759583
142	0x3e90f977	0.28315327
143	0xbeab49f1	-0.3345485
144	0x3eb97cc7	0.3622801
145	0x3f1056dc	0.56382537
146	0x3d15d8a3	0.036583554
147	0xbf0757ca	-0.5286833
148	0x3f3c92d0	0.7366152
149	0x3eb3d282	0.35121542
150	0xbe07135d	-0.1319098
151	0x3ef1e7b7	0.47247097
152	0xbdad3c54	-0.08458772
153	0x3cc09fc5	0.023513684
154	0xbc72ddb2	-0.014823364
155	0x3bd3cd22	0.0064636627
156	0x3da12eed	0.078702785
157	0xbe815ba3	-0.25265226
158	0x3ef7256c	0.48270738
159	0x3f15daf6	0.5853723
160	0xbee00229	-0.43751648
161	0xbf1e94a1	-0.6194554
162	0x3c8f6ec1	0.017508866
163	0xbf016273	-0.50540847
164	0xbd303672	-0.043020673
165	0xbf1b2454	-0.6060231
166	0xbf0fe93d	-0.5621527
167	0x3df5ea35	0.12007562
168	0xbe06ab10	-0.13151193
169	0xbd5f514a	-0.054520883
170	0x3e102367	0.14076005
171	0xbe782f04	-0.24236685
172	0xbe9cf24f	-0.30653617
173	0x3eae10fc	0.33997333
174	0xbf9394a2	-1.1529734
175	0xbf9b3c33	-1.2127746
176	0xbe80e7d5	-0.25176874
177	0x3f0f5dd8	0.5600257
178	0xbebe568a	-0.371754
179	0xbdddd93a	-0.10832448
180	0x3e2d2330	0.16907954
181	0x3dab7e3e	0.08373688
182	0xbee1d797	-0.44109794
183	0xbee16d5c	-0.44028747
184	0x3e43d3f7	0.19123827
185	0x3fac17f4	1.344481
186	0x3fd79b1f	1.6844214
187	0x3e88e3c2	0.26736265
188	0x3e9004e1	0.28128722
189	0x3ec43f2f	0.38329455
190	0x3e90fc87	0.28317663
191	0x3df03787	0.11729341
192	0xbf850332	-1.03916
193	0xbb18ff9b	-0.0023345712
194	0xbf47bccc	-0.78022456
195	0xbeb817a3	-0.35955533
196	0x3d49ba54	0.049249962
197	0xbeac189c	-0.33612525
198	0xbd163c60	-0.03667867
199	0xbe602d70	-0.21892333
200	0xbe41fd87	-0.1894437
201	0xbd7eabf3	-0.062175702
202	0xbe18dcfb	-0.14928047
203	0x3dbb4221	0.091434725
204	0xbdd75b20	-0.105154276
205	0x3e167c27	0.14695798
206	0x3dd228ba	0.10261674
207	0x3e199b93	0.15000753
208	0x3e130d42	0.14360526
209	0xbcd636f2	-0.026149247
210	0x3c208a38	0.009798579
211	0x3a15f6ef	0.0005720695
212	0x3d33aae6	0.043864153
213	0xbca64384	-0.020295866
214	0x3dfb29e1	0.12263847
215	0x3dda23c0	0.1065135
216	0x3de54f04	0.11196712
217	0xbe1ee0a2	-0.15515378
218	0x3f397181	0.7243882
219	0x3e4d14d3	0.20027475
220	0x3dd43380	0.10361385
221	0xbef67bb7	-0.48141262
222	0x3e892816	0.26788396
223	0xbf06f7a0	-0.52721596
224	0xbe0cfba3	-0.13767867
225	0xbc819525	-0.015818188
226	0x3f17da51	0.593175
227	0xbdca0c3e	-0.09865616
228	0x3dba67db	0.0910184
229	0x3ef72264	0.48268425
230	0x3d430ac8	0.047617704
231	0xbdec2e96	-0.11532323
232	0xbdd04a83	-0.10170462
233	0xbea01d05	-0.3127214
234	0xbe939364	-0.28823388
235	0xbe400108	-0.18750393
236	0x3cb5cd7a	0.022192705
237	0x3dba7b4b	0.091055475
238	0x3cb6e637	0.022326572
239	0x3e3b8451	0.18312193
240	0x3e2ef1a0	0.1708436
241	0x3ae6852e	0.0017587298
242	0xbb179a45	-0.0023132723
243	0xbcf7933a	-0.03022157
244	0x3e2b20bb	0.16711704
245	0xbd9a9929	-0.07548744
246	0xbe523675	-0.20528586
247	0x3f556dc1	0.83370596
248	0xbe86aefe	-0.26305383
249	0xbeccc19d	-0.39991465
250	0x3d7258b7	0.059166636
251	0x3eda4137	0.4262788
252	0x3c71babc	0.014753994
253	0xbe10a1cc	-0.1412422
254	0xbdf4a481	-0.11945439
255	0x3e93de92	0.28880745

fc1.bias f4 [128]
0	0xbde1cd27	-0.11025458
1	0x3ad13f7f	0.0015964358
2	0xbcf4c9b5	-0.029881338
3	0x3d6b9bdc	0.057521686
4	0x3da3450e	0.079721555
5	0xbd10cbb2	-0.03535051
6	0x3dbf5898	0.0934307
7	0x3da54d32	0.080713645
8	0xbd895430	-0.067055106
9	0xbd33229e	-0.043734185
10	0x3cc15e3e	0.023604508
11	0xbd8603bf	-0.06543683
12	0xbddae5dd	-0.10688374
13	0x3d838914	0.0642263
14	0x3d8a2320	0.06744981
15	0x3d64a3a6	0.05582013
16	0x3de2a2a7	0.1106618
17	0x3c9981c4	0.018738635
18	0xbda3054b	-0.07959994
19	0xbc36f0b4	-0.011165787
20	0xbdb43c54	-0.08800569
21	0x3d41071c	0.04712592
22	0x3da5f66c	0.08103642
23	0xbdcf672c	-0.101271
24	0x3de9d087	0.114167266
25	0x3d58b0cd	0.052902985
26	0x3d5fb4fc	0.05461596
27	0x3b573dc9	0.0032843223
28	0x3d0ab3b4	0.033862785
29	0x3ccc63bb	0.024949899
30	0x3d928382	0.071539894
31	0xbcf47d70	-0.02984497
32	0x3dc527f6	0.096267626
33	0xbc180c10	-0.00928022
34	0xbda0a56c	-0.07844052
35	0xbdbbe7de	-0.091750845
36	0x3d9c1172	0.07620515
37	0x3d9fc3cc	0.07801017
38	0xbc389937	-0.011266998
39	0x3d6923de	0.05691897
40	0x3d1b0764	0.037848845
41	0xbdcdb3d1	-0.10044063
42	0x3ddc72de	0.10764097
43	0x3dd96500	0.10614967
44	0x3decd162	0.11563374
45	0x3ddac568	0.106821835
46	0x3dc5d572	0.09659852
47	0xbdb113ad	-0.08646331
48	0xbd5415c3	-0.051778566
49	0xbde83d19	-0.113397785
50	0xbdaca5b1	-0.08430041
51	0xbdbef166	-0.09323387
52	0xbc3e607b	-0.011619682
53	0xbd88e2dc	-0.06683895
54	0xbdac099a	-0.08400269
55	0x3dba1e10	0.09087765
56	0xbd2d894c	-0.042367265
57	0xbcb85dae	-0.022505607
58	0xbd423ef4	-0.047423318
59	0x3ce4bad2	0.027921114
60	0xbd7921f6	-0.060823403
61	0xbd2d346c	-0.04228632
62	0xbc2d2dc2	-0.010569992
63	0xbdc1ce9e	-0.09463237
64	0xbd2cc2d6	-0.042177998
65	0xbdc69e96	-0.096982166
66	0xbddf0090	-0.10888779
67	0xbdd58417	-0.10425585
68	0x3dbeea83	0.09322073
69	0x3d9840c4	0.07434228
70	0xbdcc3937	-0.0997185
71	0x3daac322	0.08338
72	0x3dbe0bc4	0.09279588
73	0x3d3ec928	0.046578556
74	0xbd8bde00	-0.068294525
75	0xbb9cfae3	-0.00479065
76	0xbdd9f570	-0.106425166
77	0x3c95cbab	0.018285593
78	0xbd2fd985	-0.042932052
79	0xbd079682	-0.03310252
80	0x3d2a2cb7	0.04154655
81	0xbd203fbe	-0.03912329
82	0x3d5f31db	0.054490905
83	0x3da631e4	0.08114985
84	0x3d04f10f	0.032456454
85	0xbd4f271e	-0.050574414
86	0x3d769c78	0.060207814
87	0xbdeda6fb	-0.116041146
88	0x3de9e4f4	0.114206225
89	0xbdac0fb4	-0.08401433
90	0x3debebc1	0.11519576
91	0x3d851a36	0.0649914
92	0xbcfd3702	-0.030910019
93	0x3d75fd06	0.060055755
94	0xbd8e06f4	-0.0693492
95	0x3cdd94a0	0.027048409
96	0xbd5b8665	-0.053594965
97	0xbbabcfff	-0.005243301
98	0xbd6d33dc	-0.057910785
99	0xbca3a68c	-0.019976877
100	0x3ddd17fc	0.1079559
101	0xbd616e64	-0.055036917
102	0xbdc2d80e	-0.095138654
103	0xbcc3f354	-0.023919739
104	0x3cc31512	0.023813758
105	0x3d9e1e90	0.07720673
106	0xbddb3649	-0.107037134
107	0xb906c22b	-0.00012851569
108	0xbdb5f82c	-0.08885226
109	0xbda7153c	-0.08158347
110	0xbdc83a8c	-0.09776792
111	0x3d500a08	0.050790817
112	0x3c2330f5	0.009960403
113	0xbdc5a6f7	-0.09650987
114	0xbda69014	-0.081329495
115	0xbc939a84	-0.018018015
116	0x3c0a0ef3	0.008426416
117	0xbb4bc9ce	-0.0031095627
118	0xbce0e58f	-0.027453212
119	0x3ce7474a	0.028232235
120	0xbd3c0eaa	-0.045912422
121	0xbd307f33	-0.043090057
122	0x3cdb09bd	0.026738042
123	0xbd927364	-0.07150915
124	0x3d3e2ca0	0.046429276
125	0x3d3623fc	0.04446791
126	0xbddf16c7	-0.10893016
127	0xbdd9b73e	-0.10630654

fc1_bn.weight f4 [128]
0	0x3f87ad2b	1.0599722
1	0x3f8a34cc	1.0797362
2	0x3f81545e	1.0103872
3	0x3f76ea21	0.96451
4	0x3f8b6676	1.0890644
5	0x3f6799ed	0.9046925
6	0x3f7a617b	0.97804993
7	0x3f8ea92f	1.1145381
8	0x3f57db45	0.84318954
9	0x3f736382	0.9507371
10	0x3f54e7a0	0.8316593
11	0x3f88fe94	1.0702691
12	0x3f884dec	1.064878
13	0x3f8db8e7	1.1072053
14	0x3f64beb0	0.89353466
15	0x3f5f89ff	0.8731994
16	0x3f8a20fb	1.0791315
17	0x3f89a4a6	1.0753372
18	0x3f925bc8	1.143426
19	0x3f89cfbf	1.0766524
20	0x3f989f2a	1.1923573
21	0x3f63411b	0.8877122
22	0x3f85a311	1.0440389
23	0x3f865dc7	1.0497369
24	0x3f7cb836	0.98718584
25	0x3f601b14	0.8754132
26	0x3f76d3a9	0.9641672
27	0x3f8d2492	1.1026785
28	0x3f6e1585	0.93001586
29	0x3f80e608	1.00702
30	0x3f88c4cb	1.0685056
31	0x3f56c17a	0.8388897
32	0x3f7b9cb8	0.9828601
33	0x3f7bdc6e	0.98383224
34	0x3f75abda	0.9596535
35	0x3f8a7e45	1.0819784
36	0x3f6c7ead	0.9238079
37	0x3f81f6bb	1.0153421
38	0x3f67a67e	0.9048842
39	0x3f7ac7a6	0.9796089
40	0x3f6e66fc	0.9312589
41	0x3f70ff30	0.94139385
42	0x3f8ac55b	1.0841478
43	0x3f80f57a	1.0074914
44	0x3f77f2bb	0.9685475
45	0x3f61000d	0.878907
46	0x3f79d94e	0.97597206
47	0x3f778679	0.96689564
48	0x3f857f24	1.0429425
49	0x3f6ac281	0.9170304
50	0x3f7d1962	0.98866856
51	0x3f87967b	1.0592798
52	0x3f6e6e41	0.93136984
53	0x3f82cecf	1.0219363
54	0x3f77bdf5	0.96774226
55	0x3f835884	1.0261388
56	0x3f65db37	0.8978762
57	0x3f6b06aa	0.91807044
58	0x3f84c3f2	1.0372298
59	0x3f75bfe8	0.9599595
60	0x3f83c1c4	1.0293508
61	0x3f89f973	1.0779251
62	0x3f79e06a	0.97608054
63	0x3f6184ab	0.8809306
64	0x3f8ab9aa	1.083791
65	0x3f58ffa2	0.84765065
66	0x3f7191bb	0.9436299
67	0x3f7d7e61	0.99020964
68	0x3f774c2d	0.9660061
69	0x3f752ac3	0.95768374
70	0x3f931a4a	1.1492398
71	0x3f81cafa	1.0140069
72	0x3f781d44	0.96919656
73	0x3f869a8a	1.0515912
74	0x3f833831	1.0251523
75	0x3f72a6a2	0.9478551
76	0x3f771308	0.96513414
77	0x3f6f4ac1	0.9347344
78	0x3f7a3820	0.9774189
79	0x3f84af16	1.0365932
80	0x3f7422eb	0.9536578
81	0x3f7f04d0	0.9961672
82	0x3f6d5e66	0.92722166
83	0x3f74c0bc	0.9560659
84	0x3f8200b2	1.0156462
85	0x3f7afb81	0.98040015
86	0x3f80eae1	1.0071679
87	0x3f875da2	1.057545
88	0x3f76aa5b	0.9635369
89	0x3f7a6e5c	0.97824645
90	0x3f8dd8da	1.1081803
91	0x3f60274a	0.8755995
92	0x3f79b70e	0.97544944
93	0x3f701879	0.9378734
94	0x3f6ad18f	0.9172601
95	0x3f866f1f	1.0502661
96	0x3f855ec2	1.0419543
97	0x3f8868ea	1.0657017
98	0x3f612694	0.8794949
99	0x3f70e4e3	0.94099253
100	0x3f7a4a71	0.9776984
101	0x3f77f90e	0.968644
102	0x3f8189f8	1.012023
103	0x3f6e59f8	0.9310603
104	0x3f770317	0.9648909
105	0x3f6985e1	0.9121991
106	0x3f791a68	0.9730592
107	0x3f7301d2	0.9492465
108	0x3f655354	0.89580274
109	0x3f795dbb	0.97408646
110	0x3f7a0239	0.9765964
111	0x3f892a49	1.071603
112	0x3f6ae41c	0.9175432
113	0x3f7ae12a	0.97999823
114	0x3f82029d	1.0157048
115	0x3f94fd62	1.1639826
116	0x3f8d1ade	1.1023824
117	0x3f61f359	0.88261944
118	0x3f83ee5a	1.0307114
119	0x3f7d729c	0.99003005
120	0x3f80ef67	1.007306
121	0x3f97f45f	1.1871451
122	0x3f86e069	1.0537235
123	0x3f80af27	1.0053452
124	0x3f7a6f9a	0.9782654
125	0x3f7f0f25	0.99632484
126	0x3f850817	1.0393094
127	0x3f867328	1.0503893

fc1_bn.bias f4 [128]
0	0x3dff0336	0.12451784
1	0xbe215807	-0.15756236
2	0xbe222902	-0.15835956
3	0xbeba0a4e	-0.36335987
4	0x3e22b736	0.15890202
5	0xbdbfd125	-0.09366063
6	0xbe1b6a38	-0.15177238
7	0x3c2500d0	0.0100709945
8	0xbdd0efe0	-0.102020025
9	0x3e404b92	0.18778828
10	0xbdf29d2a	-0.11846383
11	0x3e6d7075	0.2318743
12	0x3b2d1f1d	0.002641625
13	0xbd69815e	-0.05700814
14	0xbe2ae1c3	-0.16687684
15	0xbe530766	-0.20608291
16	0xbe70319d	-0.23456426
17	0xbdb97073	-0.09054651
18	0x3d275922	0.040856488
19	0xbe21ddd3	-0.15807275
20	0x3ca2aeaf	0.019858686
21	0x3d206677	0.039160218
22	0xbe82cc9d	-0.25546733
23	0x3b223641	0.0024751576
24	0x3d3b0a72	0.04566426
25	0xbe78c287	-0.24292956
26	0xbefe7fc7	-0.4970686
27	0xbe7d1a08	-0.24716961
28	0xbe2ced82	-0.16887477
29	0x3d3a364b	0.045461934
30	0xbeb6d43b	-0.35708794
31	0xbdcc5e07	-0.09978872
32	0xbd5c3f3f	-0.053771254
33	0xbcf85688	-0.030314699
34	0xbe40ad55	-0.18816121
35	0x3e2d17f7	0.16903673
36	0xbe15e11f	-0.14636658
37	0xbe925a1a	-0.28584367
38	0x3babf159	0.0052472767
39	0xbcb1475b	-0.02164047
40	0xbdee23f4	-0.11627951
41	0xbe8c6460	-0.2742033
42	0x3cc7e743	0.024402266
43	0xbe612346	-0.21986112
44	0xbd20bc41	-0.039242033
45	0x3d22274b	0.039588254
46	0x3e4ae636	0.19814381
47	0x3d7abb31	0.061213676
48	0xbe111006	-0.14166269
49	0xbeaa6a52	-0.3328424
50	0xbe60f3a6	-0.21967945
51	0xbe3ae6de	-0.18252131
52	0x3da0d7a8	0.07853633
53	0xbe1b664e	-0.15175745
54	0xbbc48b42	-0.005998046
55	0xbd159f20	-0.036528707
56	0xbe798d41	-0.2437029
57	0xbdfcd48e	-0.12345229
58	0x3d736396	0.059421144
59	0xbdc2a80b	-0.09504708
60	0xbd335342	-0.043780573
61	0xbe78e088	-0.24304402
62	0xbdcb3052	-0.09921326
63	0xbec4f937	-0.38471386
64	0x3e81291e	0.25226682
65	0xbe345a7d	-0.17612644
66	0xbd407be9	-0.04699317
67	0xbd0e5e77	-0.034758057
68	0xbe2d3915	-0.16916306
69	0xbecad295	-0.39613786
70	0xbdd494bf	-0.103799336
71	0xbe042256	-0.12903723
72	0xbe5f6098	-0.21814191
73	0x3d66c39a	0.056338884
74	0x3e504944	0.20340449
75	0xbc909ef7	-0.017653925
76	0xbe459659	-0.19295634
77	0xbdcfb4f0	-0.10141933
78	0xbdab3745	-0.08360151
79	0x3d87dcd6	0.06633918
80	0xbded34e3	-0.11582353
81	0x3dff97fd	0.12480161
82	0xbe284b30	-0.16434932
83	0xbd93abce	-0.072105035
84	0xbe39af2e	-0.18133232
85	0xbd853f92	-0.06506266
86	0xbe92a5c4	-0.28642094
87	0xba8986e6	-0.0010492473
88	0xbe3ef035	-0.18646319
89	0xbe210f0f	-0.157284
90	0xbe36e015	-0.17858918
91	0xbe676cc2	-0.22600082
92	0xbdd6d41c	-0.104896754
93	0x3cef0308	0.02917625
94	0xbd5a4d17	-0.053296175
95	0xbedb8979	-0.4287832
96	0xbc6fcb96	-0.014635941
97	0xbd8edfe4	-0.069762975
98	0xbe1fea81	-0.156168
99	0x3d7cb7d8	0.061698765
100	0xbda119d7	-0.07866257
101	0x3dfac626	0.12244825
102	0xbd761787	-0.06008103
103	0x3c7fcc23	0.015612635
104	0xbe21280d	-0.15737934
105	0xbe009734	-0.1255768
106	0xbe597a5d	-0.21238084
107	0x3d6573f9	0.056018803
108	0xbdea1c2c	-0.114311546
109	0x3c82331c	0.015893511
110	0xbd2b128f	-0.041765746
111	0x3c91371f	0.01772648
112	0xbd8d0f57	-0.068876915
113	0xbe9329d1	-0.2874284
114	0x3ddb6009	0.107116766
115	0xbd8f8698	-0.070080936
116	0xbe96013d	-0.2929782
117	0xbdc61256	-0.09671466
118	0xbe0aa4b7	-0.13539396
119	0xbe0ec58d	-0.13942547
120	0x3d5af450	0.05345565
121	0xbcadb35c	-0.02120369
122	0xbe498211	-0.19678523
123	0xbe290b22	-0.16508153
124	0xbc600284	-0.013672475
125	0xbda8aa28	-0.0823558
126	0x3d09543d	0.0335276
127	0xbe96e557	-0.29471847

fc1_bn.running_mean f4 [128]
0	0xc6fda935	-32468.604
1	0x472d64cc	44388.797
2	0x473c93ff	48275.996
3	0x479743df	77447.74
4	0x46668349	14752.821
5	0x47948e87	76061.055
6	0x47410bd0	49419.812
7	0x47071887	34584.527
8	0xc77457ea	-62551.914
9	0xc7bb3926	-95858.3
10	0x47204ca6	41036.65
11	0xc782ef5d	-67038.73
12	0xc7872b67	-69206.805
13	0x479e7154	81122.66
14	0xc750ea7a	-53482.477
15	0x475fa232	57250.195
16	0x4693accf	18902.404
17	0x470b4a7a	35658.477
18	0xc6ca8cb5	-25926.354
19	0x479242f3	74885.9
20	0xc5c5a01a	-6324.0127
21	0xc793737e	-75494.984
22	0x473a67dc	47719.86
23	0xc6b87db4	-23614.852
24	0x47742ca2	62508.633
25	0x4769c110	59841.062
26	0x47a11c5d	82488.73
27	0x472976cd	43382.8
28	0x4772e415	62180.082
29	0xc713dd42	-37853.258
30	0x479a6a26	79060.3
31	0x47977fe2	77567.766
32	0x473907d0	47367.812
33	0xc8084916	-139556.34
34	0x47aa9c72	87352.89
35	0xc79393a0	-75559.25
36	0x471a0b7d	39435.49
37	0x478b306c	71264.84
38	0x46fab706	32091.512
39	0x477ade91	64222.566
40	0x47a0f8f3	82417.9
41	0x47514f1f	53583.12
42	0xc7f21896	-123953.17
43	0x4779d09a	63952.6
44	0xc8113821	-148704.52
45	0x47d6583d	109744.48
46	0xc71acc9c	-39628.61
47	0xc702dcbc	-33500.734
48	0x479946f6	78477.92
49	0x477b404a	64320.29
50	0xc68d370d	-18075.525
51	0x47c53584	100971.03
52	0x47c7a40b	102216.086
53	0x47711ba5	61723.645
54	0xc7296f9a	-43375.6
55	0xc83ed99e	-195430.47
56	0x477816c4	63510.766
57	0x475b7aec	56186.92
58	0x474c69d5	52329.832
59	0x47b578f8	92913.94
60	0xc768a9a2	-59561.633
61	0x47465e44	50782.266
62	0xc79cd1cc	-80291.59
63	0x479d911f	80674.24
64	0xc72b72ba	-43890.727
65	0xc71362b6	-37730.71
66	0xc81bec2f	-159664.73
67	0xc757f1c5	-55281.77
68	0x478538c8	68209.56
69	0x4755c455	54724.332
70	0xc67df012	-16252.018
71	0xc61a7f08	-9887.758
72	0x478a7d6a	70906.83
73	0xc783806d	-67328.85
74	0x472eb831	44728.19
75	0x47f99eb0	127805.375
76	0x47ad7e39	88828.445
77	0x4788a1bf	69955.49
78	0x473b3fd6	47935.836
79	0xc59bba18	-4983.2617
80	0xc79152fc	-74405.97
81	0xc78df604	-72684.03
82	0xc781d46a	-66472.83
83	0x477ff084	65520.516
84	0x479a1edb	78909.71
85	0x45e71158	7394.168
86	0x47aee19c	89539.22
87	0xc6e7175e	-29579.684
88	0x47561ab0	54810.688
89	0xc790d656	-74156.67
90	0xc6058726	-8545.787
91	0x47ec626f	121028.87
92	0xc79f0062	-81408.766
93	0x474835b1	51253.69
94	0xc81f09c3	-162855.05
95	0x476c6e95	60526.582
96	0xc68ff1c1	-18424.877
97	0xc8142591	-151702.27
98	0x4769ea4c	59882.297
99	0x45b8ec1b	5917.513
100	0x47a70cab	85529.336
101	0x46901f6b	18447.709
102	0x4748a16a	51361.414
103	0x470f904e	36752.305
104	0xc7391ccc	-47388.797
105	0xc754a7a2	-54439.633
106	0xc590dc5e	-4635.546
107	0x470c9289	35986.535
108	0x47a14fb4	82591.41
109	0xc73d0207	-48386.027
110	0xc765c152	-58817.32
111	0xc7aa0cad	-87065.35
112	0xc72bc740	-43975.25
113	0x46ea9ac7	30029.389
114	0xc78c2dec	-71771.84
115	0xc3559eef	-213.62083
116	0x4713edf2	37869.945
117	0xc79ddcff	-80825.99
118	0x44c1c336	1550.1003
119	0x4731a176	45473.46
120	0xc7fd58fa	-129713.95
121	0x46831b67	16781.701
122	0x478dde88	72637.06
123	0x475283bc	53891.734
124	0xc7beab12	-97622.14
125	0xc70b8718	-35719.094
126	0x463423c6	11528.943
127	0x47489c8d	51356.55

fc1_bn.running_var f4 [128]
0	0x4e46d50f	8.3396294e+08
1	0x4dae8fe8	3.6608333e+08
2	0x4e0c69ed	5.8893805e+08
3	0x4f340457	3.0201833e+09
4	0x4d890fa5	2.8743798e+08
5	0x4eeced07	1.9874784e+09
6	0x4e13ec12	6.2043046e+08
7	0x4e51a7e6	8.793604e+08
8	0x4f118e9b	2.442042e+09
9	0x4f6b974a	3.9525606e+09
10	0x4e78e233	1.04389344e+09
11	0x4ed97065	1.8240109e+09
12	0x4f35c447	3.0495393e+09
13	0x4ef8c976	2.0869763e+09
14	0x4ed42326	1.7795366e+09
15	0x4e12e364	6.1609395e+08
16	0x4e175617	6.347504e+08
17	0x4d59f0d5	2.2852744e+08
18	0x4cba53f8	9.768954e+07
19	0x4f139e13	2.4766103e+09
20	0x4ccba178	1.0676115e+08
21	0x4f448d7f	3.2976074e+09
22	0x4e9719ec	1.2675292e+09
23	0x4da0e5dc	3.3742733e+08
24	0x4e74bdc1	1.0265191e+09
25	0x4eb3a041	1.506812e+09
26	0x4f7e0a2a	4.262079e+09
27	0x4ea19018	1.3552876e+09
28	0x4ebb3f36	1.570741e+09
29	0x4db56b0f	3.8046154e+08
30	0x4f4c7a6d	3.4305754e+09
31	0x4e9388cd	1.2376081e+09
32	0x4e25e15a	6.957523e+08
33	0x4fff2596	8.5613066e+09
34	0x4eb38a6d	1.5060968e+09
35	0x4f097e45	2.3067538e+09
36	0x4ea6ae25	1.3982153e+09
37	0x4f1e120e	2.6519834e+09
38	0x4e1ea46f	6.653941e+08
39	0x4e7b650b	1.0544258e+09
40	0x4eb230c5	1.4947703e+09
41	0x4e694220	9.783562e+08
42	0x4fe24b30	7.5931566e+09
43	0x4f0edf96	2.3970176e+09
44	0x50187a1c	1.0232558e+10
45	0x4f391e30	3.1057633e+09
46	0x4e513466	8.77468e+08
47	0x4e6a2ec6	9.822335e+08
48	0x4f35467a	3.0412948e+09
49	0x4f163ab2	2.520429e+09
50	0x4e4aac63	8.500738e+08
51	0x4f8bc164	4.689414e+09
52	0x4f11ceac	2.4462408e+09
53	0x4e0e73f0	5.974907e+08
54	0x4e1d7f72	6.605938e+08
55	0x5083815c	1.7650344e+10
56	0x4f0286b4	2.189866e+09
57	0x4eea783c	1.9668741e+09
58	0x4e37cc0a	7.709006e+08
59	0x4ee858e0	1.9490693e+09
60	0x4f0c8eb3	2.3581622e+09
61	0x4e676c9b	9.706636e+08
62	0x4f1546af	2.5044375e+09
63	0x4f66afda	3.8702843e+09
64	0x4e552f9f	8.94167e+08
65	0x4e9a7d95	1.2959607e+09
66	0x5032266c	1.195545e+10
67	0x4efb9f8f	2.110769e+09
68	0x4e9dba28	1.3231114e+09
69	0x4ecf6711	1.7398191e+09
70	0x4c71fe43	6.3437068e+07
71	0x4d0fa279	1.5061186e+08
72	0x4f04b2c0	2.226307e+09
73	0x4f329101	2.9958474e+09
74	0x4e447cb2	8.241266e+08
75	0x4f884aa4	4.573186e+09
76	0x4f6feca2	4.0252626e+09
77	0x4ef14e1a	2.0242138e+09
78	0x4e25fe46	6.962262e+08
79	0x4e616e5f	9.455267e+08
80	0x4f45326c	3.308416e+09
81	0x4f177d8a	2.541587e+09
82	0x4f2ecf92	2.932839e+09
83	0x4e665c75	9.6620474e+08
84	0x4eabd18c	1.4413184e+09
85	0x4c26092b	4.3525292e+07
86	0x4f892a4f	4.6025027e+09
87	0x4d144295	1.5546197e+08
88	0x4ed59995	1.7918061e+09
89	0x4f794918	4.182317e+09
90	0x4d8585ff	2.800189e+08
91	0x4f9be125	5.230447e+09
92	0x4f5bee8e	3.6898442e+09
93	0x4e228c21	6.817731e+08
94	0x501e7ca2	1.0635872e+10
95	0x4f1631d8	2.519849e+09
96	0x4ca3c086	8.585323e+07
97	0x501fae6a	1.0716031e+10
98	0x4e888142	1.1450862e+09
99	0x4d9d4ee9	3.298993e+08
100	0x4f57a096	3.6176256e+09
101	0x4e00feb1	5.410438e+08
102	0x4e682602	9.7370125e+08
103	0x4deac180	4.9231872e+08
104	0x4e9d7164	1.320727e+09
105	0x4ef6500e	2.0662208e+09
106	0x4d00eb47	1.3518142e+08
107	0x4dfe083e	5.3274413e+08
108	0x4f0484cb	2.2232952e+09
109	0x4dc15079	4.0540957e+08
110	0x4ee6acf7	1.9350476e+09
111	0x4f96ba6a	5.0575985e+09
112	0x4e834b01	1.1013654e+09
113	0x4e42edd1	8.1759136e+08
114	0x4f16d68a	2.5306424e+09
115	0x4cca8bae	1.0619224e+08
116	0x4e8716a8	1.1332045e+09
117	0x4f038ff9	2.2072507e+09
118	0x4c8ca0d3	7.372969e+07
119	0x4e65c26d	9.636811e+08
120	0x4fd996f2	7.3010964e+09
121	0x4cd6dd94	1.1265142e+08
122	0x4f1a2a62	2.5864689e+09
123	0x4ee01952	1.8798779e+09
124	0x4f76e302	4.1420723e+09
125	0x4e73046b	1.01928826e+09
126	0x4d289199	1.7675714e+08
127	0x4eb1642c	1.488066e+09

fc2.weight f4 [64, 128]
0	0x3da6d02a	0.08145173
1	0x3e770f2e	0.24126884
2	0xbe35a246	-0.17737684
3	0x3d8eafb2	0.06967105
4	0x3da21477	0.079140596
5	0x3cdd1f99	0.026992606
6	0xbd728bd9	-0.0592154
7	0xbdd339fc	-0.10313794
8	0x3b59e13d	0.0033245825
9	0x3e08d83f	0.13363741
10	0xbcaae93c	-0.020863168
11	0x3b8fdb20	0.0043901354
12	0x3e0ed287	0.13947497
13	0x3cde9901	0.027172567
14	0xbc902ac7	-0.017598523
15	0x3d39da4f	0.04537421
16	0xbd530c6c	-0.05152552
17	0x3df9e698	0.122021854
18	0xbe415297	-0.18879162
19	0x3d598a52	0.05311043
20	0xbd6a8d7d	-0.05726384
21	0x3d813f68	0.06310922
22	0xbd37a20e	-0.04483228
23	0xbc9178f4	-0.01775787
24	0x3da822c3	0.08209755
25	0x3cc3fdc9	0.023924725
26	0x3da80b20	0.08205247
27	0x3e71b728	0.23605025
28	0x3d98b225	0.074558534
29	0xbda5583a	-0.080734685
30	0x3e6f4d65	0.23369367
31	0x3d65b70a	0.056082763
32	0x3dba4a36	0.09096186
33	0x3e3f52a3	0.18683867
34	0xbd1cd7be	-0.038291685
35	0x3e4efe4b	0.20214193
36	0x3c811b7d	0.015760178
37	0x3e266331	0.16248776
38	0x3dd1a1bf	0.10235929
39	0x3b7bb295	0.0038406004
40	0xbe2c8168	-0.1684624
41	0x3d8766dd	0.066114165
42	0x3e001493	0.12507848
43	0xbe038907	-0.1284524
44	0x3d7676d1	0.060171906
45	0x3d46106f	0.048355516
46	0x3dbfdf2f	0.09368741
47	0xbd37cb66	-0.04487171
48	0x3e547d04	0.20750815
49	0x3d99d169	0.07510645
50	0x3e25fee7	0.16210519
51	0x3e233a04	0.159401
52	0xbd4d30ff	-0.050095554
53	0x3e0120b4	0.12610132
54	0x3e1db2d6	0.15400252
55	0x3dd62b33	0.10457458
56	0x3d86acce	0.06575929
57	0xbe306b8e	-0.17228529
58	0xbe1a1d9e	-0.1505036
59	0x3d1d8095	0.038452704
60	0x3935c29f	0.00017334007
61	0x3df72a65	0.12068633
62	0x3e1c47b5	0.15261729
63	0xbde89611	-0.11356748
64	0x3c8a243e	0.016862985
65	0x3d2b0bf1	0.041759435
66	0xbb94d048	-0.0045414306
67	0x3cad7b12	0.021176849
68	0x3d80f769	0.0629719
69	0xbc129e15	-0.0089488225
70	0xbe083be7	-0.13304101
71	0x3d2699c2	0.04067398
72	0x3e41c1a3	0.18921523
73	0x3d4f0374	0.050540403
74	0x3de7096e	0.112810954
75	0xbdb30f1a	-0.08743115
76	0xbdef1f9c	-0.11675951
77	0x3d27abda	0.040935375
78	0xbd830adc	-0.06398556
79	0x3deb71b1	0.11496294
80	0x3c3fbc49	0.0117026055
81	0x3e281344	0.16413599
82	0xbd1c289a	-0.03812466
83	0xbc003696	-0.007825514
84	0xbd5f8f71	-0.054580156
85	0xbd68465c	-0.056707725
86	0x3caa1b42	0.02076495
87	0xbdfa9276	-0.122349665
88	0xbd38f72f	-0.045157608
89	0x3d1133f0	0.035449922
90	0x3e1c3e62	0.15258172
91	0x3e3a2086	0.18176469
92	0x3d108df9	0.035291646
93	0x3dd17075	0.102265276
94	0x3d3795fc	0.04482077
95	0x3e012080	0.12610054
96	0xbe16ddb4	-0.1473301
97	0x3e234c7a	0.15947142
98	0x3cb46982	0.022022966
99	0xbd9aa384	-0.075507194
100	0x3d04cadf	0.032420035
101	0x3e1f3325	0.15546854
102	0xbcc0951a	-0.023508597
103	0xbb89335c	-0.0041870307
104	0x3ce2b50f	0.027674226
105	0x3d468589	0.048467193
106	0xbdf569f7	-0.11983102
107	0x3d73b2f8	0.05949685
108	0x3dd9cf6b	0.10635265
109	0x3cf2a440	0.029619336
110	0x3da309ff	0.07960891
111	0x3d36c922	0.04462541
112	0x3c72e6b9	0.014825516
113	0x3c86d640	0.016459584
114	0x3db2ce28	0.087307274
115	0xbc447e06	-0.011992937
116	0xbdb8064f	-0.08985578
117	0xbdc46ed1	-0.09591449
118	0x3e13bb20	0.14426851
119	0x3dcfd39f	0.101477854
120	0x3dea2b54	0.114340454
121	0x3ad5da0e	0.0016315596
122	0x3bdfe653	0.0068328767
123	0x3d4292e6	0.047503375
124	0x3dbbb2bc	0.0916495
125	0x3e5f5a77	0.21811853
126	0x3e45ba26	0.19309291
127	0xbc932ea6	-0.01796658
128	0xbe190b30	-0.14945674
129	0xbd019496	-0.031635843
130	0x3ceaa139	0.02864133
131	0xbe0f59d8	-0.13999116
132	0xbd865163	-0.06558492
133	0x3c85b8da	0.016323496
134	0x3e161897	0.14657818
135	0x3dd9a228	0.10626632
136	0xbd00d3df	-0.031452056
137	0x3d61fd10	0.05517298
138	0x3c68158e	0.014165295
139	0xbd0ade78	-0.03390357
140	0x3d0e88aa	0.0347983
141	0x3b043c9e	0.0020177732
142	0x3d66745c	0.056263313
143	0x3c562c2d	0.013072056
144	0xbd9939dc	-0.07481739
145	0x3d8577e5	0.06517009
146	0xbe6aac8c	-0.22917384
147	0xbda8f53e	-0.08249901
148	0xbe82ebc5	-0.25570503
149	0xbd09ea93	-0.033670973
150	0xbda5cdf5	-0.08095924
151	0xbd9a6b95	-0.07540051
152	0x3d161fb8	0.036651343
153	0xbcedfcf9	-0.02905129
154	0xbe83cef5	-0.25743833
155	0xbe017ea6	-0.12645969
156	0x3dc2254d	0.09479771
157	0xbd737d94	-0.059445933
158	0xbe09e8de	-0.13467738
159	0x3b9d557d	0.0048014508
160	0xbdb492b9	-0.088170476
161	0xbdfcc952	-0.12343086
162	0x3d0209fa	0.031747796
163	0xbdd0f3e3	-0.10202768
164	0x3d81c196	0.06335752
165	0xbe883677	-0.26604053
166	0x3c9a1104	0.018806942
167	0x3d38d30c	0.045123145
168	0x3d6e9e97	0.05825671
169	0xbd85efe5	-0.06539897
170	0x3c5f9d12	0.013648288
171	0x3d254b1f	0.040354844
172	0xbde54867	-0.1119545
173	0x3db5e317	0.088812046
174	0x3cddd7f1	0.027080508
175	0x3bd49725	0.0064877444
176	0xbd8b76a1	-0.06809736
177	0x3cc5c91a	0.024143744
178	0x3d99cb16	0.07509439
179	0xbcb953d3	-0.022622978
180	0x3b127084	0.0022344897
181	0x3d1ae5bf	0.03781676
182	0x3e18266d	0.14858408
183	0xbc9a93c5	-0.01886929
184	0xbb9c7c4f	-0.004775561
185	0xbe0139f3	-0.12619762
186	0xbd0505bd	-0.032476176
187	0x3d8cf4a2	0.068825975
188	0xbdc4f624	-0.0961726
189	0xbcda88a6	-0.026676487
190	0xbcbfd58d	-0.023417259
191	0xbd893c45	-0.067009486
192	0xbc0645ea	-0.00819538
193	0x3dd11fca	0.102111414
194	0xbc43dd57	-0.011954627
195	0x3dd7769a	0.10520668
196	0x3d77e313	0.06051929
197	0xbdc5e37b	-0.09662529
198	0xbe2af42c	-0.16694707
199	0x3d52ac24	0.051433697
200	0xbd213389	-0.03935579
201	0xbe134498	-0.14381635
202	0x3d05ddaa	0.0326821
203	0x3d99a102	0.07501413
204	0xbdacace3	-0.08431413
205	0x3dc0c231	0.09412039
206	0xbd2ca2e9	-0.04214755
207	0x3c658faf	0.014011308
208	0xbba0861d	-0.0048988
209	0xbd4b936a	-0.049701132
210	0x3d655f67	0.055999186
211	0xbddc4615	-0.107555546
212	0x3a21130c	0.0006144501
213	0x3d5d8f04	0.05409147
214	0xbdd18312	-0.10230078
215	0xbe2cd738	-0.16878974
216	0xbc72349e	-0.014783053
217	0x3d7039b1	0.05864877
218	0xbe4353e8	-0.19074976
219	0xbd831ef3	-0.064023875
220	0x3daf305e	0.08554147
221	0x3da7aa6c	0.08186802
222	0x3c4cf3cb	0.012509297
223	0xbe206c0c	-0.15666217
224	0xbd7e000c	-0.062011763
225	0xbd1d9fea	-0.038482584
226	0x3d23c4d0	0.039982617
227	0x3dff440b	0.1246415
228	0xbc3e5e4e	-0.011619164
229	0xbdbe6b0f	-0.092977636
230	0x3d5d3b02	0.054011352
231	0x3ce764db	0.028246334
232	0xbc0ac046	-0.008468693
233	0x3db67651	0.08909286
234	0xbc583f20	-0.013198644
235	0xbd9b4242	-0.07580997
236	0x3e23ff6d	0.16015406
237	0xbe56110a	-0.20904937
238	0x3de2ba0a	0.110706404
239	0x3c927aeb	0.017880877
240	0xbe2e520c	-0.17023486
241	0xbe35a688	-0.17739308
242	0x3e3e914b	0.18610112
243	0xbe914b03	-0.28377542
244	0xbe88d032	-0.2672134
245	0xbd23b2cb	-0.039965432
246	0x3b4f3329	0.0031616187
247	0xbd066775	-0.032813508
248	0x3b4e600d	0.0031490356
249	0xbd15a303	-0.036532413
250	0x3ca1c3cc	0.019746684
251	0x3d97f7a7	0.07420283
252	0x3e183002	0.14862064
253	0x3caa0377	0.020753605
254	0x3cfb8be8	0.030706361
255	0xbe44dea8	-0.19225562

fc2.bias f4 [64]
0	0xbd8788a0	-0.06617856
1	0x3da83379	0.08212943
2	0x3bb26256	0.0054438515
3	0x3ca7ed18	0.020498797
4	0x3d80e25a	0.06293173
5	0x3c7311ae	0.014835758
6	0x3d3f1bdc	0.04665743
7	0xbda4082e	-0.08009373
8	0x3cd4ef17	0.025992913
9	0xbda86a59	-0.08223409
10	0x3d8ca7ca	0.06867941
11	0x3d46cd50	0.048535645
12	0xbd3a16e1	-0.045431975
13	0x3d14b8b8	0.036308974
14	0xbd9661de	-0.073428854
15	0xbd44fd1d	-0.04809295
16	0xbd6e1ace	-0.05813103
17	0xbd9f1b30	-0.077688575
18	0xbd8fe760	-0.07026553
19	0xbc5d8cd1	-0.013522343
20	0x3db0d869	0.08635027
21	0x3d90eb26	0.07076101
22	0x3d3db15b	0.046311717
23	0x3bb77017	0.005598079
24	0xbc9e1938	-0.019299135
25	0xbd906cf9	-0.07052035
26	0x3c1fb201	0.009747029
27	0xbd5d636c	-0.054049894
28	0x3d970be9	0.073753186
29	0x3d043548	0.032277375
30	0x3d6d2805	0.057899494
31	0x3daf5acf	0.08562242
32	0xbc9a7180	-0.01885295
33	0xbcb5e7d1	-0.022205265
34	0xbd9d3c9e	-0.076775774
35	0x3daa8879	0.08326811
36	0x3d80e0b2	0.06292857
37	0x3d0bf30e	0.034167342
38	0x3cc03344	0.023461945
39	0x3db039e9	0.086047955
40	0x3d1bcfdb	0.038040023
41	0x3cfda38a	0.03096177
42	0x3d65049a	0.05591259
43	0x3c4c00fe	0.012451408
44	0x3baa8cb1	0.00520476
45	0xbd024aa6	-0.03180947
46	0xbceae6bb	-0.028674474
47	0xbd81c19c	-0.06335756
48	0x3d84a780	0.064772606
49	0xbc219cd7	-0.009864054
50	0xbd911ca2	-0.070855394
51	0xbd9c0fe7	-0.07620221
52	0xbd1a20e3	-0.03762902
53	0x3c9eece7	0.019400073
54	0x3d652d11	0.05595118
55	0x3d1525ec	0.03641312
56	0x3bb0c32f	0.0053943614
57	0xbd7f4b9d	-0.06232797
58	0xbd9d37c1	-0.0767665
59	0x3cb85248	0.022500172
60	0x3cc082d7	0.02349989
61	0xbc9d6e2b	-0.019217571
62	0xbd09073a	-0.033454157
63	0x3da9cf82	0.08291532

fc2_bn.weight f4 [64]
0	0x3f75063f	0.95712656
1	0x3f7aaabe	0.9791678
2	0x3f7d9b1a	0.9906479
3	0x3f82e1a4	1.022511
4	0x3f6ec24c	0.93265224
5	0x3f6cb244	0.9245951
6	0x3f82c89a	1.0217469
7	0x3f7dd0d2	0.9914676
8	0x3f7f8b55	0.9982198
9	0x3f6d94d0	0.92805195
10	0x3f74ed76	0.95674837
11	0x3f7e659b	0.9937379
12	0x3f6bcaab	0.9210612
13	0x3f6d12c9	0.9260679
14	0x3f70c681	0.9405289
15	0x3f6eab72	0.93230355
16	0x3f6ca38c	0.9243705
17	0x3f757eed	0.958968
18	0x3f847866	1.0349243
19	0x3f74074f	0.9532365
20	0x3f8307ea	1.023679
21	0x3f6b0a9b	0.9181306
22	0x3f81af1d	1.0131565
23	0x3f87a627	1.0597581
24	0x3f73785b	0.9510552
25	0x3f899403	1.0748295
26	0x3f7228fa	0.94593775
27	0x3f718cc8	0.9435544
28	0x3f6add3c	0.91743827
29	0x3f6595f3	0.8968193
30	0x3f7e1099	0.99244076
31	0x3f741ab4	0.95353246
32	0x3f779dcb	0.9672515
33	0x3f7889b6	0.9708513
34	0x3f749204	0.955353
35	0x3f8448fa	1.0334771
36	0x3f830df7	1.0238637
37	0x3f7a9652	0.9788562
38	0x3f84bed8	1.0370741
39	0x3f88277a	1.0637047
40	0x3f831dab	1.0243429
41	0x3f8020bf	1.0009993
42	0x3f7f3819	0.99694973
43	0x3f6d70c5	0.927502
44	0x3f6798db	0.90467614
45	0x3f7f77fa	0.99792445
46	0x3f78ffcd	0.9726532
47	0x3f751f79	0.9575115
48	0x3f854624	1.041203
49	0x3f6f17cb	0.9339568
50	0x3f793433	0.97345275
51	0x3f7740d4	0.96583295
52	0x3f84bb2c	1.036962
53	0x3f79273a	0.9732548
54	0x3f66ce8e	0.9015893
55	0x3f867278	1.0503683
56	0x3f706f37	0.939197
57	0x3f6f881e	0.93567073
58	0x3f745a64	0.95450425
59	0x3f7f09d8	0.99624395
60	0x3f7ac91a	0.97963107
61	0x3f6dbaad	0.9286297
62	0x3f78332d	0.9695309
63	0x3f74a4b5	0.95563823

fc2_bn.bias f4 [64]
0	0xbc173963	-0.009229991
1	0xbd808b22	-0.062765375
2	0x3d96abb6	0.0735697
3	0x3d68aadb	0.056803565
4	0x3e09f83d	0.13473602
5	0xba9fb914	-0.0012185895
6	0x3e49ead4	0.19718486
7	0x3e2a9c3c	0.16661161
8	0x3dec893f	0.11549615
9	0xbd2fab46	-0.04288795
10	0x3c73fe3e	0.014892159
11	0x3dcd5239	0.10025448
12	0xbc6a2549	-0.014291116
13	0x3c3579ea	0.01107643
14	0x3e21021e	0.15723464
15	0x3e3e7d2e	0.1860244
16	0x3d1bab3f	0.03800511
17	0x3d9580e2	0.07299973
18	0x3e5b7d26	0.21434459
19	0x3e01bd15	0.12669785
20	0x3d7c3c62	0.061581023
21	0x3d896b84	0.0670996
22	0x3e86cd89	0.26328686
23	0x3e08cfcd	0.1336052
24	0x3dc93042	0.098236576
25	0x3e9abbef	0.30221507
26	0x3c0d6954	0.008631069
27	0x3e4c2631	0.19936444
28	0xbdc94a0d	-0.09828577
29	0x3e29d3e7	0.1658474
30	0x3d84f17b	0.06491371
31	0x3d92fd80	0.071772575
32	0x3d0aae83	0.033857834
33	0x3deadda8	0.11468059
34	0x3e41e52d	0.1893508
35	0x3d483e13	0.048887324
36	0x3e8d4fd9	0.2759998
37	0x3dab650f	0.08368885
38	0x3e6ea4b2	0.23305014
39	0x3e4fb999	0.20285644
40	0x3e59f349	0.21284212
41	0x3e441bd9	0.19151248
42	0x3e219e42	0.15783027
43	0x3b0da446	0.0021612807
44	0x3c926e40	0.017874837
45	0x3e0105b3	0.1259983
46	0x3dd0d9f9	0.10197825
47	0x3d171a74	0.036890462
48	0x3e9d4c7d	0.30722418
49	0xbd302023	-0.042999398
50	0x3d8d4faf	0.06899964
51	0x3d3a4366	0.045474432
52	0x3e2c811b	0.16846125
53	0xbd979e1e	-0.07403205
54	0xbcca374f	-0.024684576
55	0x3de737c8	0.11289936
56	0xbcad8926	-0.021183562
57	0x3dc1cb0e	0.09462558
58	0x3ea738db	0.32660565
59	0x3e366396	0.17811427
60	0x3e8076ea	0.25090724
61	0xbcd4803e	-0.025940057
62	0x3de88667	0.1135376
63	0x3e0e283e	0.13882539

fc2_bn.running_mean f4 [64]
0	0x3ff7a420	1.9346962
1	0xbf8b3b90	-1.0877552
2	0xbfb36dc6	-1.4017875
3	0xbf813402	-1.0093997
4	0xbfa77514	-1.3082604
5	0xbf88a2a9	-1.067464
6	0xbf844d66	-1.033612
7	0xbfd2e669	-1.6476566
8	0xbfad6a44	-1.3548055
9	0xbdf58bb5	-0.119895376
10	0x3f6d6b1c	0.9274156
11	0x3daa1b99	0.08306045
12	0xbf38af61	-0.72142607
13	0xbe8612c3	-0.2618619
14	0xbeeac1a8	-0.45850873
15	0x3f559312	0.83427536
16	0xbf1cc3d5	-0.61236316
17	0xbf76a257	-0.9634146
18	0xbf0dbb89	-0.5536428
19	0xbfc16f84	-1.5112157
20	0xbf9a2563	-1.204266
21	0xbe11af97	-0.14227138
22	0xbfb4023d	-1.4063183
23	0xbf377b4b	-0.71672505
24	0xbf893fbd	-1.0722576
25	0xbfbbc88d	-1.4670578
26	0xbedb8d4c	-0.42881238
27	0xbfb0a89a	-1.3801453
28	0x3eb067b7	0.34454128
29	0xbe284115	-0.16431077
30	0x3f4afdba	0.79293406
31	0xbfa89d79	-1.3173057
32	0xbf6dc81c	-0.9288347
33	0xbf835dc5	-1.0262991
34	0xbec3ddfc	-0.38255298
35	0xbf829260	-1.020092
36	0xbf70983b	-0.93982285
37	0x3ea55ab3	0.3229576
38	0xbef569d0	-0.4793229
39	0xbf87514b	-1.0571684
40	0xbfcc6884	-1.5969396
41	0xbf955d92	-1.166918
42	0xbfb2be21	-1.3964273
43	0xbf3d3705	-0.7391208
44	0xbf2d7c9d	-0.6776827
45	0xbf925c47	-1.1434411
46	0xbfadf1ae	-1.358938
47	0xbf923c2b	-1.1424612
48	0x3f3e2eca	0.74290144
49	0xbf7c49ba	-0.9855
50	0xbe55b783	-0.20870785
51	0xbf2a7265	-0.665808
52	0xbf8bbc09	-1.0916759
53	0xbf297d79	-0.6620708
54	0x3f70a78b	0.9400565
55	0xbf838a8e	-1.0276659
56	0xbd6881ac	-0.05676429
57	0xc004b892	-2.0737653
58	0x3fb65355	1.4244181
59	0xbf39622b	-0.7241542
60	0xbf05314e	-0.5202836
61	0xbf36f563	-0.7146818
62	0xbf8fe1a8	-1.124074
63	0xbf8acadc	-1.0843158

fc2_bn.running_var f4 [64]
0	0x403d1e36	2.954969
1	0x3ffbe1ed	1.9678322
2	0x407d50dc	3.9580603
3	0x407b885a	3.9301972
4	0x3fe106c4	1.758019
5	0x40a249b0	5.071495
6	0x3fe8c376	1.818465
7	0x40627582	3.538422
8	0x40009918	2.009344
9	0x3f8aae68	1.0834475
10	0x3fa80435	1.3126284
11	0x4015cbc5	2.340562
12	0x3fe8f7c9	1.8200618
13	0x401c4a85	2.4420483
14	0x403c101d	2.9384835
15	0x3f9fa5af	1.2472438
16	0x40afb62e	5.4909887
17	0x4088e46d	4.277884
18	0x40d6ec5c	6.7163525
19	0x403796ba	2.8685746
20	0x40ebb845	7.366244
21	0x3fdbe074	1.7177873
22	0x3fb445f1	1.4083844
23	0x40ed9888	7.4248695
24	0x4011bae4	2.277032
25	0x3fd8c2a3	1.6934398
26	0x40b73fa3	5.726518
27	0x4047210e	3.1113925
28	0x40be5864	5.94829
29	0x40a80c4a	5.2515
30	0x3fbffa67	1.4998292
31	0x4111a7b3	9.103442
32	0x404c5a56	3.1930137
33	0x3fe21ba5	1.7664686
34	0x404bc55b	3.1839206
35	0x40ed378b	7.41303
36	0x40a5f2ca	5.1858873
37	0x3fff23cc	1.9932799
38	0x3f607513	0.8767864
39	0x3fbd92b7	1.4810399
40	0x403b819c	2.9297857
41	0x4074a44b	3.8225276
42	0x4049153b	3.1419208
43	0x3f8bcacb	1.0921263
44	0x4008e839	2.1391737
45	0x40d6caaa	6.7122393
46	0x40f686dc	7.7039623
47	0x402934b7	2.6438425
48	0x400f74ff	2.2415159
49	0x40ea22c9	7.316746
50	0x4089993c	4.2999554
51	0x408edaf1	4.4642262
52	0x403f0d04	2.9851694
53	0x400894f4	2.1340914
54	0x40107bc2	2.2575536
55	0x40721569	3.7825568
56	0x3fa26721	1.2687722
57	0x40a6bb68	5.2103767
58	0x3ff8832e	1.9415033
59	0x402804d5	2.625295
60	0x40666821	3.6001055
61	0x40daab25	6.8333917
62	0x3faeab38	1.3646002
63	0x40c1af55	6.052653

fc3.weight f4 [1, 64]
0	0xbd942be7	-0.07234936
1	0xbdd647b0	-0.10462892
2	0xbde184ef	-0.11011683
3	0xbdad693c	-0.084673375
4	0xbd18c9b3	-0.03730173
5	0xbd44ba41	-0.048029188
6	0xbda157f1	-0.078781016
7	0xbdabb127	-0.083833985
8	0xbd9f8871	-0.07789696
9	0xbd81fbbb	-0.06346842
10	0xbdacd819	-0.08439655
11	0xbd377332	-0.044787593
12	0xbd74a827	-0.059730675
13	0xbd203923	-0.03911699
14	0xbd9123fc	-0.070869416
15	0xbd531a1e	-0.05153858
16	0xbd743d68	-0.059628874
17	0xbcf17a99	-0.029477404
18	0xbd358f7f	-0.0443263
19	0xbd42aa3e	-0.047525637
20	0xbdcaf5a6	-0.09910135
21	0xbd3fdb5d	-0.04684006
22	0xbd30392e	-0.04302328
23	0xbd9035c8	-0.07041508
24	0xbd8ca80b	-0.06867989
25	0xbdb833db	-0.08994266
26	0xbd9cee46	-0.076626346
27	0xbd6641bd	-0.056215037
28	0xbd5cc2dc	-0.05389677
29	0xbd4209ec	-0.047372743
30	0xbd12cae3	-0.03583802
31	0xbdb35814	-0.08757034
32	0xbd958bea	-0.07302077
33	0xbd864a20	-0.06557107
34	0xbd33c036	-0.04388448
35	0xbd8ddeeb	-0.06927284
36	0xbd831657	-0.06400745
37	0xbd9330d6	-0.07187049
38	0xbdabca18	-0.08388156
39	0xbd728779	-0.059211228
40	0xbd660b7f	-0.056163307
41	0xbd4a57fa	-0.049400307
42	0xbd17f5bd	-0.03709959
43	0xbd69bc9d	-0.05706464
44	0xbd52ae95	-0.051436026
45	0xbd8e450d	-0.06946764
46	0xbda2ebc8	-0.07955128
47	0xbdb38714	-0.087659985
48	0xbd484b07	-0.048899677
49	0xbd4760b6	-0.048676215
50	0xbd48a2ad	-0.048983265
51	0xbd9f6262	-0.07782437
52	0xbd0b8990	-0.034066737
53	0xbdb5e33e	-0.08881234
54	0xbd3ca5df	-0.046056625
55	0xbd99474c	-0.07484302
56	0xbd0b6289	-0.034029517
57	0xbd4e438b	-0.050357383
58	0xbd14176b	-0.036155146
59	0xbd8f2889	-0.06990153
60	0xbd4916b1	-0.049093906
61	0xbd59d5fa	-0.05318258
62	0xbda49b8a	-0.08037479
63	0xbd9b4543	-0.0758157
